saved_models/best_model_GCN.pt (torch, 178815 bytes, 4 tensors)

conv1.weight f8 [50, 128]
0	0x3fa6012bc09ccf19	0.04297768331744418
1	0x3f96d31698b852ad	0.022289612838067786
2	0x3faa0df641cd3f72	0.05088777116054545
3	0x3f81e6365fa16330	0.008739876550110631
4	0xbfa531f7ed214564	-0.04139685411122221
5	0xbf9cb6787ed7413e	-0.028039820424795574
6	0x3f85b5a2cb97d90a	0.010600349271936444
7	0xbf73e77009e5f282	-0.004859388018641499
8	0x3f5098f4b7975b99	0.0010130300346326891
9	0xbf94ba02bf5e46c6	-0.020240824632827857
10	0xbf70442d35bb6249	-0.003971268273482106
11	0x3f8eb47ddc72f7b8	0.014992697992393875
12	0x3f9e3dcdfe077b80	0.02953264105769504
13	0xbf7a31357d7b91e8	-0.0063945855579032665
14	0xbf8c21efb1edda00	-0.01373660337206406
15	0x3f73d94818cbb063	0.004845887783385991
16	0x3f75d872ef186d8b	0.00533337493973408
17	0x3f50b03473e1f0fd	0.0010185730202741377
18	0xbf92784cb4024c9e	-0.018037031638027494
19	0x3f2559fa1fbe815f	0.00016289881011478499
20	0x3f76451fb2ec10eb	0.005437015365490998
21	0x3f3e049aca29c2cb	0.00045803813023951857
22	0xbfa5ac47c34fd7a7	-0.0423300195615604
23	0x3f90d250a35b68ee	0.016427288027309687
24	0xbfa3389ea21b0203	-0.037541348732251144
25	0xbf651157610f6d4d	-0.0025717455505237853
26	0xbf54dfb5c0cf5588	-0.0012740397389639797
27	0xbf9e48ad4232d092	-0.029574114957271087
28	0x3f8742b7fc044350	0.011357724550664777
29	0x3f80839d2ef087fe	0.00806353377817359
30	0xbfabc52bf0285bc1	-0.05423867518054904
31	0xbf825466a22e8980	-0.008950044464488327
32	0xbf9314ae44ccee3c	-0.018633578252076996
33	0xbf72d7778c494635	-0.004600016579006151
34	0xbf867578744a0cc2	-0.010966244744173518
35	0xbf713e8b72eae5af	-0.00421003792023937
36	0x3fa408c2932ee8e7	0.03912933394117762
37	0xbfad6bd9b74a734a	-0.05746345865666187
38	0xbf97d601136eb268	-0.023277298747120062
39	0x3fa16880ca84ffb6	0.03400042030489152
40	0x3f939f0b040d843f	0.019161388513911467
41	0xbf92388cfecabf58	-0.01779384904028744
42	0x3f7d675e56cac182	0.007178658019867947
43	0x3f8d0fc45df566f2	0.01419022952784441
44	0xbf56844493769c77	-0.0013743085563449311
45	0xbf94e30c0bd107b5	-0.020397365781043415
46	0xbf8b21e682bbfa3c	-0.01324825369328863
47	0x3f97e1645dacd47b	0.023320739953494467
48	0x3f3cb26a8118f42b	0.000437880517981717
49	0xbfa8751358cfbf85	-0.047768215743302846
50	0x3f831db16558ac7c	0.009333978562685134
51	0xbf98a47998e8f8be	-0.024064922292603035
52	0xbfa170410e47161e	-0.034059556000596056
53	0x3f667d9997977bad	0.0027454376074582316
54	0x3f7aac16b7df01a4	0.006511772864485375
55	0x3f72c6c3ce151385	0.004584088195149221
56	0x3f51d06627350d69	0.001087283858240829
57	0x3f89ccf15e0ab03d	0.012597928697992805
58	0x3f89aa03618f929d	0.012531305708713797
59	0xbfa616eb371894ad	-0.04314360663946935
60	0x3f970f6027baa6d6	0.022519590782997444
61	0x3f6ec355c5482aa7	0.0037552523811020424
62	0x3f9f80d7a857b56e	0.030764932298486362
63	0x3f9348febb30218a	0.018833141493844553
64	0xbf66211ac8e34f3d	-0.0027013323916466312
65	0x3f754a32aff8ca47	0.005197713849656233
66	0x3f8db63ff22fc3e8	0.014507770136306733
67	0xbf92fce4877efa54	-0.01854283406259534
68	0x3fa5fef1e3f187ab	0.042960700106746096
69	0x3fa682d3405f3f2d	0.04396686707298012
70	0x3f922200c603f885	0.01770783623305096
71	0x3fa72a6deccafdf3	0.04524558558977878
72	0x3f938fe404e3c7d7	0.019103586958358534
73	0x3f4648a146700eb7	0.0006800448871903873
74	0xbf7cfad06a22331f	-0.007075132483930684
75	0x3fa7a29a4294f46c	0.046162434222858234
76	0xbf97cbdacf2c18c5	-0.023238581557074384
77	0x3f9d2776ca8f947c	0.02847085582097407
78	0xbf535d76be2577fa	-0.001181951484418685
79	0xbfa1dfe94ab11463	-0.03491143261684539
80	0x3f76fe4aa0a24c0a	0.005613605035381228
81	0x3f8c9009d362338b	0.013946606410422798
82	0xbfacc400fc347332	-0.05618289068863759
83	0xbf9dc416459ece8b	-0.029068325042045855
84	0xbf97b64bf93c2cf8	-0.023156344496823217
85	0xbfb1260d0938ce74	-0.06698686099189805
86	0x3f74cc2212f129aa	0.005077488996060012
87	0xbfa12766f981b331	-0.033503740269998146
88	0xbfa813a4f3fa6c6b	-0.04702487447976796
89	0xbf9dd4559eca74f5	-0.029130304161857763
90	0xbf960863582d20d7	-0.021516372925618334
91	0x3f92b15d69b00f4e	0.01825471837584241
92	0x3f875643bd8440e3	0.011395005436981303
93	0x3f69a11e8546e4ab	0.0031285854440424496
94	0xbf63f1d4b39cdaa1	-0.0024346498802530624
95	0x3f7532c40539635c	0.005175367073740524
96	0xbf39f47aea1a604e	-0.00039604187814168835
97	0xbf8babaa4ace08f3	-0.013511019142019331
98	0x3f95da269c0d280a	0.02133999183141814
99	0x3f8c52497e17024b	0.013828825149972654
100	0xbfa64bbc5b422a48	-0.043546568050335355
101	0xbf978ec1c3125a94	-0.023005511790496216
102	0x3fa495dfefd3bc37	0.04020595362259665
103	0x3f77a168368bc0cc	0.005769164163879913
104	0x3f8a4f36d16f1c8f	0.012846401468676908
105	0xbfa5eda9e69fab02	-0.04282885494452239
106	0x3f6496aeda5d569d	0.00251325751279803
107	0x3f459392f2235b05	0.0006584613331835637
108	0xbfafb28f44ac16c4	-0.06190917695316281
109	0xbf34d3cdba53ecb8	-0.00031780026104373136
110	0x3f64b8b5103d969d	0.0025294815440471533
111	0xbfb10260c18f48bb	-0.0664425346906538
112	0x3f2a6d7386ea3621	0.000201626160066957
113	0x3fa21c0eccca9afe	0.03537031412024837
114	0xbf5a6c26296e8689	-0.0016126988100285974
115	0xbf86cda117223dd9	-0.011134394186483586
116	0xbf7749bf76ad806f	-0.005685565857533089
117	0x3f57076506ddd478	0.0014055716123640132
118	0xbf83c58b8d7e832b	-0.009654131179389921
119	0x3f81b9cbab164a12	0.0086551581942205
120	0xbf8851d6b8016ef1	-0.011874845018773313
121	0x3f9043d66c68557a	0.015883779875442518
122	0x3f99bb1819aa9db7	0.025127770010525654
123	0x3f9c0b4e21f16db5	0.0273868759362423
124	0x3f7ae62b186a84d3	0.006567161885557132
125	0x3fa3483afea82350	0.03766044958690051
126	0xbfa604c74cfeb511	-0.043005207203672076
127	0xbf972f6018d378f5	-0.022641660228026123
128	0xbfa50a51abc07f11	-0.04109435292798314
129	0xbf9d38b31e84bf00	-0.028536604631141493
130	0xbfb194f888e6f070	-0.06867936460815982
131	0xbfa5cd368583c84d	-0.0425812757474807
132	0xbf8f0947f55b567c	-0.015154421019740065
133	0x3f9c4f310ec8b338	0.02764584210142404
134	0xbf55c7c0c5bc42e8	-0.0013293631117827168
135	0xbfa0373c3e044661	-0.03167141205825597
136	0xbfa6023b1d6002cf	-0.04298577054578844
137	0xbf95ec0e82530485	-0.021408297256816162
138	0xbfa6fef58d06d509	-0.044913934197589774
139	0xbf9fe6c120c5772e	-0.03115369570274778
140	0x3f37a3fffeea3eff	0.0003607273091938839
141	0x3fa0585fd393d96c	0.031924242570243816
142	0x3f7dc760daf1bc14	0.0072702201278920416
143	0xbf9df915d47b51b6	-0.029270497411589345
144	0xbfb2df12c60c3e87	-0.07371632895614698
145	0x3f8fc2a149a652e4	0.015507946071730179
146	0xbf54205cfb356ba2	-0.0012284191150999453
147	0x3f41df779294d1d6	0.0005454381800178941
148	0xbfb694db0e05a8e5	-0.08820885746323233
149	0xbf92a617b9c841a2	-0.018211718286751506
150	0xbf905069513e7153	-0.015931745132193708
151	0xbfacebf28d5c7815	-0.056487636333472015
152	0xbf990209d92ef98a	-0.024421838646725237
153	0xbfa55770d39f7269	-0.04168274482046714
154	0x3f9da71c6e21398a	0.02895779058626994
155	0x3f206bbc745490c3	0.00012528109997689803
156	0xbf83227bfbd43682	-0.009343117354116307
157	0xbfa0e28f51e92d0b	-0.032978514431841154
158	0xbfa46c9d70cff66e	-0.03989116670707636
159	0xbfa835513ffa3c5d	-0.04728177934622899
160	0xbfb3cecc290137de	-0.07737422944157354
161	0xbf9b219e96a8fcc8	-0.026495435662806682
162	0xbf9f6ee886c6156e	-0.030696519113481306
163	0xbfa5b01174c00b9a	-0.04235891866849002
164	0xbf9b52a198cd4365	-0.02668240065696938
165	0x3f611bd4614f5115	0.002088465504565327
166	0xbfadc64ff2d2f1f7	-0.05815362776909077
167	0xbfa4141e4cc72975	-0.039215990898429455
168	0xbfaa57e4de956d83	-0.05145182816587648
169	0xbfa7b6cb1853ebb0	-0.04631647750826262
170	0xbfa242f556adbad1	-0.03566710169876831
171	0xbfb076994ec47959	-0.06430967495950791
172	0xbfb49fd290195a54	-0.0805636979870113
173	0xbfa1eee63abc4971	-0.035025782270298296
174	0xbfa0e8308af842a6	-0.033021466220934756
175	0xbfb10fcf09f17f12	-0.06664747231252147
176	0xbf9795a588156d8b	-0.023031794005289135
177	0xbf9784bf557ea27e	-0.022967328637295108
178	0xbfadbaecbdb88d91	-0.058066747817316806
179	0xbfa072dbb06fef6c	-0.0321262982251643
180	0xbf8517db4765af35	-0.010299409023637554
181	0x3f9cb9bee095c65a	0.02805231328733835
182	0xbfa16845a05de489	-0.03399865706064371
183	0xbf9bf2dba17b52a2	-0.027293616992056464
184	0xbfa0aca6f1fe1fe8	-0.03256723121654642
185	0xbf9a3812dc9abf8e	-0.02560452910864757
186	0xbfa422b7d2517a59	-0.0393273777233289
187	0x3f63e998d8cf8171	0.0024307236949285206
188	0xbf9ff207d6c8bb85	-0.03119671104849033
189	0xbfaf10f1c3b3a471	-0.06067615045487507
190	0xbfa5ebc9b433f2d1	-0.04281454396002505
191	0xbfa8f2ce8098fb40	-0.048727467725703466
192	0xbfb0f9a99d4cfe57	-0.06630954828596579
193	0xbfa0c82bdd0fa747	-0.03277718614101715
194	0xbf928564fd5456c6	-0.01808698459816218
195	0xbf8ebaddbf5332ab	-0.015004856492305171
196	0x3f97de39364be526	0.02330865281962704
197	0x3f78107f2e809330	0.005875107577627145
198	0x3f94036b3f580540	0.0195442922031408
199	0xbf9938916a25cd21	-0.024629852393855182
200	0xbfa9c0c0105ad43a	-0.05029869269984784
201	0xbfa38ed05f885574	-0.03819895902794715
202	0xbf897ec02dc6a383	-0.012448789021463963
203	0xbf9d36174e7d1ff5	-0.028526653447698853
204	0xbf96f7f704fac554	-0.02243028610127358
205	0xbfa12cd3f7c738ca	-0.033545135494578895
206	0xbfa905f9327e9a46	-0.04887369862926909
207	0xbfa8016b54220bf1	-0.04688582803739639
208	0xbf998c4aaeb49fcd	-0.024949232972318037
209	0xbf95f480f82cc133	-0.021440520427121256
210	0xbfb5ffaa9c1d86e6	-0.08593241034898433
211	0xbfad798231196a38	-0.057567661756099786
212	0xbfa5a5b086cbe7c3	-0.04227973599877501
213	0xbfb14e0b94c2271e	-0.06759712583348373
214	0xbfa351edfce13b20	-0.037734448546521415
215	0xbfb52abd7362b762	-0.08268341128379356
216	0xbf8ff76825a20474	-0.01560860981794774
217	0xbfa82d78abb33d47	-0.04722191902112143
218	0x3f82f2cc80b48c23	0.00925216453339856
219	0xbfa1b2592ed33a0b	-0.034563815084414605
220	0xbfadc3cf49b6b938	-0.05813453459573953
221	0xbf9c68842add3a26	-0.027742447963925575
222	0xbf8a6139a3e2aaec	-0.012880754770170331
223	0xbf9182cf1e02e221	-0.017100559431783794
224	0xbf91647377a233b0	-0.016984752823691884
225	0x3f91172a8a952208	0.016689934452445626
226	0xbfa37b8a1434b0ba	-0.03805190560010048
227	0xbfafb566f2c13cf7	-0.06193086350742221
228	0xbfa24236ed6732f9	-0.03566142700183223
229	0xbfa64989249146c0	-0.04352978297596399
230	0xbf95abcf14497c4d	-0.0211632114536509
231	0x3f8e44cb39182515	0.014779651336555713
232	0x3f9d6e192e6266b2	0.02874030442817483
233	0xbfa1ae89ff81d911	-0.034534752311559676
234	0xbf9d90b6eca498d2	-0.02887235469202027
235	0xbf9e0e41360ea917	-0.029351252483743453
236	0xbf9bbbc78cf944b8	-0.027083509425499058
237	0xbf4c3cb37a7df71a	-0.0008617283210552191
238	0xbf935abc66203ce5	-0.01890081761672215
239	0xbf99d518bd7c5b5e	-0.025226961674970176
240	0xbf8ee971ccc1c280	-0.015093697606262113
241	0x3f92855e4d2c8027	0.0180868849375885
242	0xbfac51b793ddd649	-0.05531095199596032
243	0xbfac42290c6e41e6	-0.055192263381403525
244	0xbf95517cc06185c4	-0.020818661920548612
245	0xbfa759e307ae6bbf	-0.045607657134687944
246	0xbf9de5ff7be07b1a	-0.029197685180515888
247	0xbf9000528cb5a528	-0.015626230085591747
248	0xbfa3ce3b95915031	-0.03868280602242214
249	0xbfa50c0fe5b3365a	-0.04110765150981584
250	0xbfb09f06aca26fa0	-0.06492654528341157
251	0xbfa7b73d3eea066f	-0.04631987946505666
252	0xbf91f5f6886f4c31	-0.017539836957279845
253	0x3f613f37ae08b60e	0.0021053397652142153
254	0xbf948358c2836889	-0.020032297966146948
255	0xbfa5732eade2c498	-0.04189439652089638

conv1.bias f8 [128]
0	0x3fcd57be8b8ab28e	0.22924024404109783
1	0x3fcef773c94d529d	0.24192664460374128
2	0x3fce7ff6684db1c0	0.23828010647720355
3	0x3fcef0660cd3e251	0.24171138407088447
4	0x3fcb8786ee8792bf	0.21507345816566745
5	0x3fce84781a48a3ea	0.23841763766657148
6	0x3fcdcfdf60f49b47	0.23290626749186513
7	0x3fce9c63270463f6	0.23914756207594196
8	0x3fcd7b8fa65c1866	0.23033328650507484
9	0x3fcc9dd17e59f420	0.22356623334408798
10	0x3fcec59900297eff	0.2404052019874072
11	0x3fcd1b64fa0b3e70	0.22739851197410443
12	0xbfa36a1c34c5a319	-0.03791893142881104
13	0x3fcba8106cf669d2	0.21606641121327513
14	0x3fc0ae5cce3b5776	0.13032112188255568
15	0x3fcee412c37fe309	0.24133524461628778
16	0x3fcc16d4d5c5f380	0.21944675863406005
17	0x3fc9c730259ec993	0.20139123761107366
18	0x3fcc9695145e6f4c	0.22334540838789463
19	0xbfa3f08b82b311cc	-0.03894458742573512
20	0x3fcdd441e190ad37	0.23304008020327568
21	0x3fb0ce878d1b9ccf	0.06565139002815389
22	0x3fce04bfc5a63c96	0.23451993132446053
23	0x3fcb7954cfa5d4d9	0.21464023722697936
24	0x3fcd9e3d671caf60	0.231391597125703
25	0x3fcdfff1d03ecfba	0.23437330883245783
26	0x3fccd65bf24343d1	0.2252917225764848
27	0xbf9deb3c326f24aa	-0.029217663362747594
28	0x3fcc6a767ee9b716	0.22199898907586463
29	0x3fcc6b9546b9a955	0.2220331759775244
30	0x3fcc2cd33bef57b5	0.22011795450697283
31	0x3fcd9f9eb76ad0a1	0.23143371539993488
32	0x3fce944c60b25481	0.23890070649637
33	0x3fcd36002e01305f	0.2282104706413319
34	0x3fcb498fce2673ce	0.2131824261277004
35	0x3fcec94d2556364d	0.24051822970470696
36	0x3fcece34e2cf189b	0.2406679255929632
37	0x3fcc786dddbbe67a	0.22242520644049418
38	0x3fcdcd18106a2918	0.23282147218225968
39	0x3fcccbae76f70584	0.2249658661731183
40	0x3fcc5a59a5b6d171	0.22150726882467667
41	0x3fcd461814d80a2d	0.22870160119789898
42	0x3fce896b632bb771	0.23856870977709435
43	0x3fce29a0a3b21994	0.2356453704162048
44	0x3fceb3177e4ac156	0.23984044710733582
45	0x3fce0ad588231522	0.23470563075367418
46	0x3fce3e30010ffc92	0.23627281238438919
47	0x3fce7508b774959c	0.2379465957430228
48	0x3fcb4d0102e3cc75	0.21328747407060047
49	0x3fcd51c7450ebb54	0.22905817863417133
50	0x3fced683f3b2b4d1	0.24092149161643886
51	0x3fccd49ad33cc89d	0.22523818315818725
52	0x3fcce29e2b02d94a	0.2256658277526163
53	0x3fcac9622ad9fcde	0.20927073566779247
54	0x3fcafa0fc06c7661	0.2107562722748524
55	0x3fcb45d4d811941e	0.21306858587482308
56	0x3fcd487f2a234818	0.2287749248267239
57	0x3fcb7a282b950f64	0.21466543319740616
58	0x3fce7135245d8a29	0.23782982135442524
59	0x3fcefda6bf808cdb	0.2421158251828278
60	0x3fcc9c0d5d68ca9a	0.22351233540537835
61	0x3fce0f7739119e6c	0.2348469761520734
62	0x3fcde42247572d83	0.23352459414887158
63	0x3fcc4fced4676fda	0.22118554469386603
64	0x3fcb2893ccc49df4	0.21217582224311082
65	0x3fcdf36974310346	0.2339908425656409
66	0x3fce60534e39e879	0.23731461829794734
67	0x3fce31d91522ea78	0.2358962395863562
68	0x3fcbf868dd5fafd1	0.21851836022631102
69	0x3fc994bdacf39678	0.19985171265505008
70	0x3fcbefa49f4004f5	0.21825082565195655
71	0x3fcd2ddc9a2ef8a1	0.22796208885660454
72	0x3fcd9cb6fcc6bae8	0.2313450559863306
73	0x3fcd7d4596e5c6c4	0.230385492973758
74	0x3fc4b83514f0520d	0.1618715622177124
75	0x3fcd3a3a38c5d030	0.2283394601068962
76	0x3fcbbfd2f572a449	0.21679150566822816
77	0x3fcd4bda6c35bbf5	0.22887735637365805
78	0x3fc9d2a112e75c1a	0.20174039290461182
79	0x3fcd3ffae0fd0d7d	0.2285150145126912
80	0x3fcd4aecc2acedc2	0.22884902482642927
81	0x3fcd84eb47eb87ef	0.2306188679859242
82	0x3fcd739855fc693e	0.23009018133672926
83	0x3fcd28c49ba7af7e	0.22780664062826966
84	0x3fcda8631e1476ba	0.23170126885172754
85	0x3fcd6ec619fc4c63	0.22994304913354133
86	0x3fcd91350d2e626f	0.23099387305844085
87	0x3fcbc42d9169cd21	0.21692437744386786
88	0x3fcc9c91981ab7b4	0.22352809836359955
89	0x3fce2e755fa82b01	0.23579280062434552
90	0x3fcdb3a6ec26dece	0.23204504519320895
91	0x3fcbe6d3969721c3	0.2179817662529456
92	0x3fcb3536d2fbb867	0.21256146718900767
93	0x3fcd52324ee6efc4	0.22907093861237915
94	0x3fc5d000e67bd76d	0.17041026357736247
95	0x3fccdf45c16b6845	0.2255637354308552
96	0x3fc78908f001bde4	0.1838694736393186
97	0x3fc6fd1faa97ca66	0.17959972219212544
98	0x3fccd55f18b9901f	0.2252615805365403
99	0x3fcda13885e7f078	0.23148256815318624
100	0x3fcbdc88b6cc1238	0.2176676647724365
101	0x3fcd766800435352	0.2301759721073276
102	0x3fce2e7081d0cf68	0.23579222048430926
103	0x3fcd4a4090fbe479	0.22882849768919636
104	0x3fcf2d1ef82dc362	0.24356448286155358
105	0x3fcd8205158fe3d2	0.23053039124331903
106	0x3fce2e36e640146d	0.23578535311404228
107	0x3fce74ad0e5a05cc	0.23793566895260054
108	0x3fce1ae8c876a1b4	0.23519620693447296
109	0x3fa8f4deef97182d	0.04874321627316678
110	0x3fca08a4765ca562	0.20338874606504037
111	0x3fce36c1758c066a	0.236046011348708
112	0x3fb061fd87d59265	0.06399521414057004
113	0x3fcc98654854eeb0	0.2234007456953484
114	0x3fce96657e53bf2d	0.23896473568265134
115	0x3fcd02277fbfc22a	0.22662824380633256
116	0x3fce271974091c8c	0.23556821981239684
117	0x3fcde4c2141a8aa6	0.23354364377617748
118	0x3fcece75daf63243	0.2406756705426166
119	0x3fcd8d3edc1e1975	0.23087297199181092
120	0x3fcf031bc0b6455f	0.24228236112370902
121	0x3fcdc9707af1f34e	0.23270994189433697
122	0x3fcc6db5f66967ed	0.2220981076414427
123	0x3fcd196447794a90	0.227337393664659
124	0x3fcb14be9b610f97	0.21157057368156693
125	0x3fce045af4d10319	0.23450791315010447
126	0x3fcb261588122694	0.21209973472678156
127	0x3fcdb16e9215a349	0.23197729237588252

conv2.weight f8 [128, 121]
0	0x3f89623dfb02fe5b	0.012394413206833812
1	0xbfb89811f5993a22	-0.0960704063993281
2	0xbf863a48363b4b10	-0.010853351740853806
3	0xbfb9ded98f39c68c	-0.10105666872711988
4	0xbfbc91bf5b19969b	-0.1115989301120756
5	0xbfbc1d141f01fc43	-0.10981870419526367
6	0xbfb633ce9a05f4cf	-0.08672801266034756
7	0xbfb32900ae671329	-0.07484440095784052
8	0xbfbc97f862a14943	-0.1116938820644338
9	0xbfb4d69e05cd943a	-0.08139979974437575
10	0xbfbb04f4eb2a7250	-0.10554438344338135
11	0xbfba2c68c89b3bfb	-0.10224013230912014
12	0x3fa4ebba2398a118	0.04086095509075188
13	0xbfad872d3e6a6bef	-0.0576719416323711
14	0xbfba5c55af566016	-0.10297141581247646
15	0xbfa8e71fab8a9908	-0.048638333978759773
16	0xbf94196ba62e291a	-0.019628221528855773
17	0xbfb5b0bc0cf02a9b	-0.08472800556061559
18	0xbfa9b4994b4a92ce	-0.050205984536011536
19	0xbfadd3704ff8d5ab	-0.05825377441616849
20	0xbfac9a5d967f544d	-0.05586521589399549
21	0x3f925e324b33c1e5	0.01793745597837128
22	0xbf9f69aee3f34ffd	-0.03067658678340023
23	0xbf9e230d61960bd6	-0.029430588799652067
24	0xbfbdaf2cf1572d95	-0.11595421688178072
25	0xbf8fb1cf6c1e7eb5	-0.01547586487487194
26	0x3f9ae6e379905009	0.02627139501062462
27	0xbfb689deb947f8ff	-0.08804122947183045
28	0x3fa146e2b2ad0773	0.03374393874265893
29	0xbfbd3215ff5c6c9b	-0.11404550060653877
30	0x3fa28fce8984d032	0.036253408705676185
31	0xbfb5cea09fa7443f	-0.08518413446223948
32	0x3fb06f402f975a18	0.06419755136389715
33	0xbfb9e2fd0275a577	-0.10111981687591319
34	0xbfac2fe2907e29dd	-0.05505283368900724
35	0xbfb5b9bd0a925449	-0.08486539371581715
36	0xbfa6ce3f03e4077b	-0.044542283272689574
37	0xbfae8ca35c316feb	-0.05966673374561523
38	0xbfb05e916f6c53b2	-0.06394299478809165
39	0xbfba6e32c216f651	-0.10324399221914261
40	0xbfbdfcfcaec32b7c	-0.11714152590427135
41	0xbfb83bccbb8b7137	-0.09466247156837403
42	0xbfb9c36f71ef3734	-0.10063835651018566
43	0xbfb95d7476e22dd7	-0.09908225920133105
44	0xbfbd11390868b5cf	-0.11354404883669321
45	0xbfb79e940b32bde2	-0.09226346276658817
46	0xbfb18d59bd4023e2	-0.0685630881345243
47	0xbfb1cf2ac73f9ecd	-0.0695673691221785
48	0xbfb995040bcf9621	-0.09993005073882745
49	0xbfba5eec5d7a76bf	-0.10301091463267208
50	0xbfb36a47c3b5479f	-0.07584045913725256
51	0xbfaa6c13465e87a7	-0.05160579904556011
52	0xbfaaa3e8ab2ef9a7	-0.05203177537576958
53	0xbfae2e6f70cd2ee8	-0.05894802333804511
54	0xbfb84f6a45427d9b	-0.094961778554071
55	0xbfb87d41a631cb27	-0.09566126162989673
56	0xbfbd62fabd4df284	-0.11479155656520318
57	0xbfba7ccfa2be139b	-0.10346696589665642
58	0xbfa9beb90aa17925	-0.05028322462816196
59	0xbfb64548b52f274f	-0.08699469016496873
60	0xbfa767b95c7dee66	-0.04571322683383698
61	0xbfbb2a530aed2454	-0.1061145688701271
62	0xbfba6325004463fb	-0.10307532555124503
63	0xbfb601ed459c6e15	-0.08596690129746094
64	0xbfb75786865fbf2e	-0.09117928295722486
65	0xbfbd1d5b0d94ac56	-0.1137291820675029
66	0xbfa44b5634f568d0	-0.03963727375476511
67	0xbfae99fb18ebffbd	-0.059768530647488195
68	0xbfa69d23df3ed9b1	-0.04416763401188762
69	0xbfb7f6ec33c42a09	-0.09361149085831512
70	0xbfba962eb11b5c9b	-0.10385410140894395
71	0xbfbd3125abc7958b	-0.11403117603147998
72	0xbfb129616f85a0ad	-0.06703766796784079
73	0xbfb1b3e9488864eb	-0.06915147801227632
74	0xbfbc0d216e5bbec0	-0.10957535690590259
75	0xbfbc355c4aa23aed	-0.11018921682464695
76	0xbfb616e29b13cefb	-0.08628670011585975
77	0xbfbeda4f72c8faf6	-0.12051865150804617
78	0xbfb8b392f8d6abe4	-0.09649008345756688
79	0xbfba96e0e9e7ce89	-0.1038647242601717
80	0xbfba2846191a9c05	-0.10217702973260152
81	0xbf9a3744b7faad16	-0.025601457337569654
82	0xbfb19760232560d8	-0.06871605737740383
83	0xbfb508c95bc46ef6	-0.0821653222123436
84	0xbfbb57d0806f7dd9	-0.10680869231827418
85	0xbf9d4dbe76f2de1d	-0.02861688233380565
86	0xbfb9d7278c639b27	-0.10093924691646504
87	0xbfb2fe7bfc1e6d22	-0.07419562249417713
88	0xbfb702dfdc509d2b	-0.08988761070996946
89	0xbfbb108c26c6e817	-0.10572124430373751
90	0xbfb8bf43e66335bd	-0.09666847586341638
91	0xbfb7e626ebecb687	-0.09335559139136694
92	0xbfb5a644357c06d9	-0.08456827455304551
93	0xbfa21c1ecf743a13	-0.0353707912673721
94	0xbfbb6d403f5a208b	-0.10713578745537881
95	0xbfb61e19953b120f	-0.08639678853348463
96	0xbfbaf886487b74a1	-0.10535468358598844
97	0xbfb08167695f6436	-0.06447454760144997
98	0xbfaae869130848da	-0.05255440099075921
99	0xbfb59d0b458804cc	-0.08442755172292776
100	0xbfa41c08ab6c97e7	-0.03927638142185668
101	0xbfb6e3593b7b0b05	-0.08940656377948748
102	0xbfaa589adbb9a07a	-0.05145725185576651
103	0xbfb76fe0e54032e6	-0.09155088040297307
104	0xbfbdbdec9928624e	-0.11617926348879701
105	0xbfb6778f86a23e65	-0.08776185070950644
106	0xbfb6a2033ff68f8d	-0.08840961753463557
107	0xbf81c5a8f0456ef1	-0.008677787621017315
108	0xbfa776654613f9ed	-0.04582516174740534
109	0xbfb3abb6c7495b6f	-0.07683889737505266
110	0xbfb62aa6d15bca15	-0.0865883122567442
111	0xbfbb5dda10546b0f	-0.10690081499744174
112	0xbfb5f6a86aa707e6	-0.08579495052165917
113	0xbf839ae25b44cc51	-0.009572761926938041
114	0xbfbaa25de0d9236a	-0.10404001941163946
115	0xbfadb8f13ec0373c	-0.058051623258604995
116	0x3fb379906f87e3f9	0.07607367251320331
117	0x3fa8b5287019714a	0.04825712555313773
118	0xbf55e4fe4360b694	-0.0013363345183380658
119	0xbf7529b46908307a	-0.00516672585264299
120	0xbfb3dc784289987c	-0.07758285164308804
121	0x3fa16900f14ef357	0.03400423951777636
122	0xbfa57ca039f2e816	-0.0419664450395915
123	0xbfb62981af79b381	-0.08657084020678775
124	0xbfb46f69c1446708	-0.07982502907216482
125	0xbf9bc1f60d0cbaac	-0.027107090517513185
126	0xbfb7f8656e57f596	-0.09363397544799165
127	0xbfb9f1bde4935895	-0.10134493666132223
128	0xbfb34b512802a4dd	-0.07536799647154475
129	0xbf7fc300cd5fb2d2	-0.0077543288552816714
130	0xbfb57efc27041d0c	-0.08396888687649467
131	0xbf8b5ddf46532309	-0.013362640699044375
132	0xbfb9881d4a1cf870	-0.0997331911030146
133	0x3fa05590247e4651	0.03190279431795474
134	0xbfb7d9acafd8faac	-0.09316520016816793
135	0xbfac709eab34c560	-0.05554672088545476
136	0xbf835d387d789d82	-0.009455148057056165
137	0xbfc025dc52e4fcaa	-0.1261554150350766
138	0xbfb06cb06ff1bd07	-0.0641584657002917
139	0xbfb78c4f93a5e50c	-0.09198472361267224
140	0xbfa66f6e7abf2f54	-0.043818905338041475
141	0xbfbccc62854eb1c4	-0.11249366526198573
142	0x3f9e6a89fae8085d	0.029703288973913156
143	0xbfb2a3d1ba7da296	-0.07281218340870974
144	0xbfb33fbe8847ae52	-0.0751914103236058
145	0xbf8f8c9a767e801b	-0.015404898396639102
146	0x3f8a027a5665a615	0.012700038682583995
147	0x3f9b10ed6f077d35	0.026431760694206125
148	0xbfa4ece9ab2d6494	-0.04087000097815366
149	0x3fa75e5bdda3b2b2	0.04564177589950215
150	0xbfb36f8b01162f3c	-0.07592076088456862
151	0x3fa530666519f3ca	0.04138488754413279
152	0xbfbe9bc79b48a99c	-0.11956450978383376
153	0x3fb4a88a56333363	0.08069672207348115
154	0xbfbbcbc67783d483	-0.10857811372609842
155	0xbfba309e337775d4	-0.10230435139188582
156	0xbfb5c606d214796a	-0.08505289677530006
157	0xbfbbd3e53ec2aab1	-0.10870201856838936
158	0xbfbbd6f1b2c46fa3	-0.10874853720127801
159	0xbf844c0a3e78420e	-0.009910659820008962
160	0xbfbb087f3621c349	-0.10559840270594835
161	0xbfbe2f527b5c44d3	-0.11790957938889628
162	0xbfba010b68544543	-0.10157843873118559
163	0xbfba12d9d8dabe66	-0.10185014290140657
164	0xbfb86201a33a53fa	-0.09524545893721373
165	0xbfb9be67164ea2da	-0.10056156439408018
166	0xbfb6def0ed655ecb	-0.08933931155967938
167	0xbfb2abd2a72b95fd	-0.07293430882744896
168	0xbfa6d8cbcc0e5d79	-0.04462277284545286
169	0xbfb9b5c17feaa040	-0.10042962429963698
170	0xbfba95430ec8506b	-0.1038400565233261
171	0xbfafccb0bf26dfee	-0.06210853894611988
172	0xbfb743e85a52a6f8	-0.09087993817470508
173	0xbfa7275c9dfade2c	-0.04522218159166544
174	0xbfa4a958b1285502	-0.04035451090400423
175	0xbfb5bdba6f84fe2f	-0.08492627356189851
176	0xbfb841d948266cdc	-0.09475477229573265
177	0xbfaaebf5556d8711	-0.05258146922893848
178	0xbfbd491930b4e3b2	-0.11439664305807076
179	0xbfbdf3a8a2f571ac	-0.11699918726430408
180	0xbf83e5fef484606c	-0.009716026150769795
181	0xbf87f1d49290678b	-0.011691723559170494
182	0xbf992483289474df	-0.024553346015740437
183	0xbfa234dbf133b58c	-0.03555953330383507
184	0xbfbb90fe0ab8e8c6	-0.10768115770125339
185	0xbfbb7a9e91845971	-0.1073397736803139
186	0xbfbea96a0e0b52ee	-0.11977255671383677
187	0x3f7e338dbaf9ff37	0.007373384126935715
188	0xbfb5f7f157c72422	-0.08581455605521218
189	0xbfa61c79a01c2b37	-0.043185997767145094
190	0xbfb84ebe9c204bb9	-0.09495154678033559
191	0xbfbc682fff48cbb9	-0.11096477491882596
192	0xbfbc9873a24ac6e8	-0.1117012282582227
193	0xbfb7a16daf3582bd	-0.09230695273937335
194	0xbfb5e9e8b59ead5b	-0.08560041841581294
195	0xbfb53ff7a866c0cd	-0.08300731526719858
196	0xbfb602ad990a3dc4	-0.085978364814074
197	0xbfa92b6269a7b72d	-0.04915912189231473
198	0xbfbeed02d88ddaf9	-0.12080400263753778
199	0xbfb4d73743e9fc1d	-0.08140893371636122
200	0xbfb8d8160f84d851	-0.09704721335296652
201	0xbf9502833d7e7efa	-0.02051739752607682
202	0xbf9b5ff846a4289f	-0.026733283340072075
203	0xbf9b160d753f6f8c	-0.026451311379659212
204	0xbfbabb8e7996465c	-0.10442438572342766
205	0xbfbd77ede7c95f83	-0.11511122616627571
206	0xbf79239c4d8a2252	-0.006137476499710264
207	0xbfc0582fa929f0bb	-0.1276912284846555
208	0xbfb6f5f326531cee	-0.08969039617214822
209	0xbfb6e3e2025cac9f	-0.08941471631685481
210	0xbfbb523d6349aef2	-0.10672362970370466
211	0xbf67b4176d06cfbb	-0.0028934915100879677
212	0xbfb4ec3d51c38dee	-0.08172972913921914
213	0xbfb599188a25964f	-0.08436730740285124
214	0xbfb71b8d88a1be6c	-0.09026417337167353
215	0xbfbb06ff8d9d9806	-0.10557553489124424
216	0xbfb82d5de0b098ed	-0.09444224105445516
217	0xbfbc25c1eb5b9088	-0.1099511336902329
218	0xbfaf93d58f71119f	-0.0616747605895711
219	0xbfa7ea7dc56dd721	-0.04671090159437897
220	0xbfaef407a4d0323f	-0.0604555500686712
221	0x3f633383358dce3d	0.0023438990287390203
222	0xbfb80359562806ee	-0.09380110124041227
223	0xbfbd3edb37549d85	-0.11424036122172339
224	0xbfb71637b63e55e5	-0.09018276404670862
225	0xbfbc3fae7981d05b	-0.11034670320970134
226	0xbfb71ad0f6412d86	-0.09025293361735551
227	0xbf96e9bd731c9ee6	-0.02237602248274486
228	0xbfbd941a5a737146	-0.11554112156176641
229	0xbfa78a8ef52cc2de	-0.04597899191720044
230	0xbfb59cb7bf742564	-0.08442257332003106
231	0xbfb0f1fa3b5fa241	-0.06619228314924276
232	0xbfb8583a71181177	-0.09509625683864963
233	0xbfb6cd31082136dd	-0.08906847427825988
234	0xbfafadc279fd54cd	-0.06187255610590512
235	0xbfba004c15223e0b	-0.10156703487358969
236	0xbfa991ad7a5fc740	-0.04993955725502852
237	0x3fb0ba031f412202	0.06533832085654726
238	0x3fa9d78eeb89f7bb	0.05047270417433888
239	0x3fb043fcc47abf87	0.06353740498411585
240	0xbf6f7474e4e58440	-0.0038397105301304635
241	0xbfb8601a95761eb9	-0.09521642826995959
242	0x3f9792b27b50a561	0.023020542885352827
243	0xbfb16a90ae35cda6	-0.06803230527093848
244	0xbfa20d5bf35bc8fe	-0.03525817247090578
245	0xbfb9ab9e3dc1e64d	-0.10027493484258194
246	0xbfbd3fac1a9f1c2b	-0.11425281190814533
247	0xbf5e0c69f2102a7b	-0.0018340143799401565
248	0xbfb9bd2abad79f2f	-0.10054270803049968
249	0xbfb4d8dbd5deb4a3	-0.08143400165018248
250	0xbf9ebeb54e03fdbf	-0.03002436913174988
251	0xbfb61cce29c72c8f	-0.08637703437777787
252	0xbfb471ac91a0bc39	-0.07985952906959505
253	0xbf79209eb25a9f8d	-0.006134624394384403
254	0x3f6b2284f9409254	0.0033123585835872858
255	0xbf6bfa8e57bca277	-0.003415372861031603

conv2.bias f8 [121]
0	0x3fb05068f5092c40	0.063726959059907
1	0xbfc2651539228219	-0.14370980539116898
2	0xbfc260c773e4ed0f	-0.14357846411608263
3	0xbfc298eaccf715fa	-0.14529166229310403
4	0xbfc1fbb5abef9c03	-0.14049406905471082
5	0xbfc2601475246a51	-0.14355712623440067
6	0xbfc2a1e84762f901	-0.14556601987528242
7	0xbfc2d8fb819436d9	-0.14724677874658346
8	0xbfc22fd5125e5bc1	-0.14208472630408944
9	0xbfc332b4c13ed25f	-0.1499849265652697
10	0xbfc29573bc497842	-0.14518591588688606
11	0xbfc28d71f06ce9fa	-0.14494156112216655
12	0x3fbe35ef5bb2f9aa	0.11801048268077943
13	0xbfc25b3d63b1a328	-0.14340941779962546
14	0xbfc26a02baaef294	-0.14386018863105632
15	0xbfc2ef53648ef472	-0.14792864236906983
16	0xbfc20c47e79a5090	-0.14099978264551227
17	0xbfc1e746abf51ae5	-0.13987048527106719
18	0xbfc278961a5f5027	-0.1443050030489996
19	0xbfc31a24453b3e58	-0.149235280804066
20	0xbfc2597c7c50ad23	-0.14335590429377829
21	0x3f877c3a101645bd	0.01146741258233674
22	0xbfc276d47cb6fe26	-0.1442514046629963
23	0xbfc2ed2c811848d9	-0.14786297133884466
24	0xbfc23b737b48b774	-0.14243930358628243
25	0xbf7a6b334a96fa52	-0.006449890477084512
26	0x3fb4040ca0638653	0.07818678775540748
27	0xbfc34f67c88a6508	-0.1508607606126946
28	0x3fbaf87ac4fd98f1	0.10535399731961427
29	0xbfc250e32d44b69e	-0.1430934878384748
30	0x3fb98c05bf8ae571	0.09979282308895222
31	0xbfc2169524a469ec	-0.1413141659657663
32	0x3fc202f418de2594	0.14071513380285394
33	0xbfc217ac9c6a5e47	-0.1413474811313213
34	0xbfc2813270c4421d	-0.1445677805536584
35	0xbfc35240f4638ece	-0.15094768460323
36	0xbfc26639a9b67e26	-0.14374466692696436
37	0xbfc28698307bed67	-0.14473249785792605
38	0xbfc33b2f153a45b0	-0.15024364983086747
39	0xbfc276630009a1b9	-0.14423787595593554
40	0xbfc228d063ab25a5	-0.14187054506900867
41	0xbfc20bd5886e9e57	-0.1409861484691983
42	0xbfc2574048812917	-0.14328769245396053
43	0xbfc2457d3476c03b	-0.14274563848221242
44	0xbfc215052274d111	-0.1412664812320448
45	0xbfc2b89d4da39c85	-0.146258986386986
46	0xbfc310106a698c08	-0.14892773815071814
47	0xbfc2ffd35c52c546	-0.1484321785733675
48	0xbfc272747bc19c15	-0.14411788981235021
49	0xbfc2bbc94d74c3f7	-0.14635578424488901
50	0xbfc2ec7a695b8512	-0.14784174103173392
51	0xbfc2bda00c238910	-0.1464119014045271
52	0xbfc30945a0e42a57	-0.1487204585649404
53	0xbfc33c13e35e3de8	-0.15027092554053856
54	0xbfc29dce38706afb	-0.1454408431607915
55	0xbfc2c608698f25bb	-0.14666848329788515
56	0xbfc24595e675d88e	-0.14274858239122462
57	0xbfc25f4e019c0b85	-0.14353346899596545
58	0xbfc26602fed3de58	-0.1437381500506827
59	0xbfc2717b26c6a7da	-0.14408816712722122
60	0xbfc2f863caaa87cc	-0.14820525546843866
61	0xbfc1e5e845187029	-0.1398287141208823
62	0xbfc21c5692631e4d	-0.14148981235324457
63	0xbfc296244b593983	-0.14520696334006908
64	0xbfc273c9f954807d	-0.14415859865494332
65	0xbfc1c6342ca07210	-0.13886120013275205
66	0xbfc23415b6e9dac4	-0.1422145026333138
67	0xbfc2921549dda776	-0.14508310419779108
68	0xbfc314cc98143863	-0.14907224107486447
69	0xbfc2fd781a079455	-0.14836026450135145
70	0xbfc29440ca2fb8db	-0.14514932510741727
71	0xbfc21f01f055c301	-0.1415712760458732
72	0xbfc24b39e5ef66ad	-0.1429207203607822
73	0xbfc2b42659d09742	-0.14612273583878205
74	0xbfc2749ca3dcf8af	-0.14418371201640443
75	0xbfc2329a62c4bd40	-0.1421692831295136
76	0xbfc2c8e9bedf507b	-0.1467563802713164
77	0xbfc2304d825da867	-0.14209908357162535
78	0xbfc2bd1eb4c73b0f	-0.14639648272574177
79	0xbfc27937833c09cd	-0.14432424457488793
80	0xbfc260c3e5920e23	-0.1435780402135701
81	0xbfc2b6ee9d62a8d3	-0.14620764431794572
82	0xbfc2e0eba14fe59f	-0.1474890267998434
83	0xbfc259802f97b604	-0.1433563454042287
84	0xbfc22fabf0f7edaa	-0.14207982317007622
85	0xbfbba832e95eecf1	-0.10803526113061303
86	0xbfc1f8238f8b8530	-0.14038509854348424
87	0xbfc2e3224533fdcc	-0.14755657557542035
88	0xbfc2b6c9c1be0b07	-0.1462032505042645
89	0xbfc27c8e0544466e	-0.14442610985911436
90	0xbfc24c1c9b0c6c2b	-0.1429477459977034
91	0xbfc2910d1c5c9604	-0.14505161175581816
92	0xbfc2d1b23dde194b	-0.14702442189099893
93	0xbfc24ffefc6ff232	-0.14306628538169402
94	0xbfc229ec979be7df	-0.14190442469390427
95	0xbfc2864203704909	-0.14472222488308997
96	0xbfc24f5b5aba4d0e	-0.14304677896561951
97	0xbfc2eebfbd594550	-0.14791104074042005
98	0xbfc33d75aeb4ce9d	-0.1503131011064526
99	0xbfc284ee4c47d966	-0.14468172764436388
100	0xbfc2ee7bb1371318	-0.14790292885859269
101	0xbfc25e18d51ac605	-0.14349661260125415
102	0xbfc200817949f402	-0.14064043447788782
103	0xbfc310f24096935c	-0.14895465997428914
104	0xbfc29ff50095b881	-0.14550650147015534
105	0xbfc2d2bdb23f5d07	-0.14705630496494157
106	0xbfc2c76be46abee0	-0.14671085980579956
107	0xbfc25b173acdc08e	-0.14340486880565034
108	0xbfc33c5d1698b59d	-0.15027965167375337
109	0xbfc283eb34e8bea0	-0.1446508415551664
110	0xbfc2fa41e127e3fd	-0.14826224798142099
111	0xbfc258a6f9b2f1c8	-0.14333045189222404
112	0xbfc2a79693eb60d3	-0.14573938582066734
113	0xbfc2ccd7d476f0aa	-0.1468763148712971
114	0xbfc25a516f0a30cd	-0.14338128969064315
115	0xbfc327d78c3f8a6d	-0.14965338085228855
116	0x3fc1d6b0f8f233e9	0.13936435847827447
117	0x3fc077a29f82e31b	0.1286509779800092
118	0x3fc17d3c1327a7fb	0.13663435874269667
119	0xbfc1892a0fbe8feb	-0.13699842232483603
120	0xbfc2a18aa63df5f8	-0.14555485837256277
