saved_models/best_model_GAT.pt (torch, 540623 bytes, 10 tensors)

gat1.att_l f8 [1, 3, 128]
0	0xbf68dcdc88b0e49d	-0.003035002451295356
1	0xbfc39d8cfd1feab7	-0.15324556693652422
2	0x3fa1d31f6f5665a9	0.03481386407947735
3	0xbfa1d2735edd4a71	-0.034808736162308736
4	0xbfbacdbed0498c12	-0.10470192513598445
5	0x3fb6066e62710eb6	0.08603563216552854
6	0x3fbd9b15bea2a105	0.11564765838796028
7	0x3fc1b94beb3302c2	0.13846730217303188
8	0x3fc6b2e8bbba102d	0.17733487287853347
9	0x3fc4d23823fd3888	0.1626653838852159
10	0xbfb4c9025bf06204	-0.08119215721706757
11	0xbfb40114283a5edd	-0.07814146024827147
12	0xbfa9522adfbce62c	-0.04945501309562092
13	0xbfb87a03a81c2ff1	-0.09561179022074363
14	0x3fbb5b99b3ac8304	0.1068664611489219
15	0x3fc991706eec85c0	0.19975095192152814
16	0xbfbb6537e14c143a	-0.10701321840686343
17	0xbfb7ebf6c10aed37	-0.09344427311855417
18	0x3faf7e5e92f473c5	0.06151099723704293
19	0xbfafc75313e526bc	-0.06206760042057399
20	0x3fc8c68b050979fe	0.1935590529055417
21	0xbf8ec0ad549fe9e1	-0.015015939850845096
22	0x3f987a93ddc668a7	0.023905096446107745
23	0x3fc40dbdf860026b	0.1566693747299895
24	0xbfa44405a26e4cce	-0.039581466749177716
25	0xbf967b2a26ade132	-0.02195421086386879
26	0xbfad26243c09780f	-0.05693162186501876
27	0x3f7f01411de2245a	0.007569555628046032
28	0xbfc4b15095255d07	-0.16166121752278448
29	0x3f4df5bc478bec1d	0.0009143037160294108
30	0xbfc428b0d34b55b9	-0.15749178235152586
31	0x3fa73af9564f37cb	0.04537181070882886
32	0x3fc51bba512aaa8a	0.16490868533340503
33	0x3fa53ac9fae77db9	0.04146414935871285
34	0x3fc9b2122d581e90	0.20074679578850807
35	0x3fc1962a223b0d81	0.13739515944881123
36	0x3faceff1041358e9	0.05651810812712361
37	0x3fc6494316568043	0.17411078062741767
38	0x3fb1db162f01869d	0.06974924705130055
39	0xbf9ef986dc658d63	-0.03024874420351632
40	0xbfbfd28e7bc6659a	-0.12430658838129319
41	0x3fcb00d2042f0e12	0.2109625358990433
42	0xbfc9756fc6d5b4bd	-0.198896381461429
43	0x3fa73614b122dd4b	0.04533447897250172
44	0x3fbc6852e7c0bd05	0.11096685560254478
45	0xbfc78076a473d5cd	-0.18360789327532104
46	0xbfa146354ec820a1	-0.03373877131167658
47	0xbfc253431391e9fe	-0.14316595511975544
48	0xbfb4a9e1880339fd	-0.080717178064539
49	0x3f85418efda79b7d	0.010378949275901434
50	0xbfbe60d3ac75fedd	-0.11866496048423465
51	0x3fb61571754bac81	0.08626469720518239
52	0xbfbca20a6e03df06	-0.11184754548946438
53	0x3fb57189bd67cc62	0.08376370309979245
54	0x3fbd661610765ec4	0.11483896161950741
55	0xbfbf0ea60e7af8e1	-0.12131727078937928
56	0x3fc24b68a4cc92de	0.1429262928660568
57	0x3fc8e169537959e3	0.19437901092415108
58	0xbf7b03ac9ab82857	-0.006595300899343646
59	0x3fbca9d755c27dee	0.11196657031768328
60	0x3fb37c11b9de773e	0.07611189639871171
61	0x3fc6c771aea7089d	0.17796155002549066
62	0x3fb470c69730a202	0.07984582129632403
63	0xbfad12053314e8a6	-0.056778109059864065
64	0x3fc2b75b8cb4e611	0.14622063036385716
65	0xbfc0d59fa46f6dd9	-0.13151927498880303
66	0x3f36d6a0cf92aeea	0.0003484861950464451
67	0xbfba0b6ec10e2d2f	-0.10173694813982047
68	0xbfb8fa8a7364da96	-0.09757294957385407
69	0x3f8b010aad6d6786	0.01318558065183929
70	0xbfbc8f1769613ceb	-0.11155840227842233
71	0xbfb159ba5536ab1f	-0.06777538853081609
72	0xbfbdff35ae04a2f1	-0.11717544077385945
73	0x3fc77b68c16432f3	0.1834536499303777
74	0x3fbb239b780fb791	0.1060120742910995
75	0xbfc4296dd30f1edd	-0.1575143127977218
76	0x3fc32be970ac4bdc	0.1497775840913097
77	0xbfc58e7575f37cb7	-0.16840999850589863
78	0x3fa665be66c0f349	0.04374499325101639
79	0x3fc1193fe42b5711	0.1335830558879754
80	0x3fb286ce43746863	0.0723694719967241
81	0xbfb224e125af5839	-0.07087523622553328
82	0xbfb3bba92a3321c0	-0.07708222656504571
83	0x3fbe1782a0b7d7c5	0.11754623817236538
84	0x3fbc385a185c936a	0.11023486227766247
85	0xbfb5fb1886ae8ac1	-0.08586266792421339
86	0xbfc2e01bc6e0f047	-0.14746424876091366
87	0x3fbd42e9e44c3499	0.11430227111505288
88	0xbfc4853604b1760d	-0.16031527737770582
89	0xbfc759380752f236	-0.182410243583847
90	0xbfcc13e1e9559a34	-0.21935676472931365
91	0x3faa3fa9c1eaf59d	0.05126696102295656
92	0x3fbe75a033f9a00c	0.11898232716487217
93	0x3fc91cf190c960ec	0.19619578904781265
94	0x3fcb24dc623b33f9	0.212062404598697
95	0xbfa4aae638b09f2d	-0.04036635820403798
96	0xbfbe3ae191a73819	-0.1180859547232277
97	0xbfb8d079b65b2540	-0.09693108274509132
98	0x3fc7cfb1614ff23a	0.18602578403069164
99	0xbfb2b5c92fd8a2b0	-0.07308633249398144
100	0xbfb5071eac7c00a2	-0.08213988982243106
101	0xbfb37e353389f6c6	-0.07614452846788841
102	0x3fc1c1aaddcb7caf	0.1387227614386339
103	0xbfa625ce953d8c2b	-0.043257194249939644
104	0xbfc01518ec131136	-0.1256438400943211
105	0xbf9fdee64dd80a53	-0.03112373209115511
106	0x3fbe18c26242b7cf	0.11756529711666917
107	0xbfa8ee7b9e9b7e5d	-0.04869448004842234
108	0x3faf5600995db28a	0.06120302078384039
109	0x3f848781559c942d	0.01002408068195323
110	0xbfca7547128f317f	-0.20670402914255345
111	0x3fce2b326d966ab0	0.23569326735453933
112	0xbfcd2a88ebc10d44	-0.22786056052619064
113	0xbfc0a0dbd4dde637	-0.12990901845823696
114	0xbfb191cc13ec87e9	-0.06863093840050251
115	0x3fba9cad15f052f5	0.10395318780531311
116	0x3fb5281ca6c0a0e2	0.08264330931763511
117	0xbfaca4bc8d8b31ce	-0.05594434001759262
118	0x3fc55e16a4174538	0.16693385135889982
119	0x3fccadb505258d5b	0.22405112029364713
120	0xbfbad576ce4dd8fb	-0.10481970345231055
121	0xbfcc09bbc296ba36	-0.21904704095273225
122	0x3fcb70c45aaa3dfd	0.21437887598993646
123	0xbfbd15053f25f5f8	-0.11360199729639209
124	0x3fbd49384d6abe68	0.11439849748671238
125	0x3f99b3ca9919a1b7	0.025099912256708126
126	0xbf526aead2cd3ed0	-0.0011241238782594871
127	0xbfbd036eda447b0c	-0.1133336336974759
128	0x3fb36d8b0169328e	0.07589024338194347
129	0xbf9fd23274411fd5	-0.03107527575073717
130	0x3fcdbbf0f9e98692	0.23229801371330844
131	0xbfc9e727137e71f9	-0.20236671878673443
132	0x3fc78d8ab1230aac	0.18400701188337132
133	0xbfc59cf3dc675270	-0.1688523126782857
134	0x3f95e8c29a9ec5b5	0.021395722090977027
135	0x3f90ed84684da4e8	0.016531056276481687
136	0xbfbb32becd5847cd	-0.1062430621462049
137	0x3fbf3f5cf10716d1	0.12206059345688948
138	0x3fc58f9aef711b07	0.16844498340125133
139	0x3fb06741538c01d7	0.06407554902762712
140	0xbfc0047aebc35f77	-0.12513672363160896
141	0xbfa98893c2131910	-0.049870126190898145
142	0x3fb257c6f8084697	0.0716518741176294
143	0x3fb7f89562d5e7c3	0.09363683379152037
144	0x3fc55ec1d0a35e0c	0.16695425689134458
145	0x3f9db76d6f06525c	0.029020032788667258
146	0x3fb1e59822a93667	0.06990958067145812
147	0xbfc2acad2f587f63	-0.145894668691649
148	0xbfcae8e2a02a7c97	-0.21023209400752726
149	0xbf805bc34d2bad0a	-0.007987523834762662
150	0x3f64af3effe98d17	0.0025249700986919132
151	0x3fc3b5899fceab87	0.15397758772936873
152	0x3f94b7f595b2b78a	0.020232999097678873
153	0xbf8e16be4fe05dc0	-0.014691817104945382
154	0x3fc74f703ae3c52b	0.1821117675349709
155	0xbfac202259d819d3	-0.054932664363196125
156	0x3f94d92b4dca7d07	0.02035968458460238
157	0xbfb0fdce426fe971	-0.06637276765824197
158	0x3fc63e38fe21d630	0.17377388390348036
159	0x3fb30c1a588d9628	0.07440342580738302
160	0x3fbbac596e05ca9d	0.10809859214877311
161	0x3fa6544a2743479f	0.04361182908327454
162	0x3f8c49b175afe0f8	0.013812433628104234
163	0x3fb3a9a24614ab4f	0.07680715762095967
164	0x3fc2a12b39c93d1c	0.14554348298632014
165	0xbfa2adc6a4603af0	-0.03648205524961223
166	0xbfc9be1d69a5f3b5	-0.20111434610944703
167	0x3fc3f14e7a53be6c	0.15580159161571616
168	0xbfb8581d82e8d372	-0.09509453245193614
169	0xbfcbb9a412126554	-0.2166028106919763
170	0x3fb1828b977f3651	0.06839821289687477
171	0x3fc2c846aab2876b	0.1467369397624297
172	0x3f9027ab0f87ecfa	0.01577632219594436
173	0x3fb41909677285d5	0.07850703025407964
174	0xbfca7a3ccad975ab	-0.20685539154775986
175	0xbf773ea581c09f3d	-0.005674978743662793
176	0xbfbd4cc3854aa899	-0.1144525719088584
177	0x3f920ceff402a8a4	0.017627476947986623
178	0x3fa5d1416571da58	0.04261211741770826
179	0xbfc613237e79b17c	-0.1724590652041903
180	0xbfa9bb5d1ecc9585	-0.05025759697881952
181	0x3f77c8bb2e2c1cb0	0.005806666539462643
182	0x3fcd73e799ca6d99	0.2300996304446528
183	0xbfc287a65f95bba2	-0.14476470629912536
184	0x3fbdc5eb58162c05	0.11630125904609663
185	0x3fc38275956440b7	0.15241880220901802
186	0x3fc67ec049c8c2f3	0.1757431373858008
187	0xbfb7880fd0eca564	-0.09191988802617385
188	0x3f82da3e9740ae76	0.009205330839981967
189	0xbfcb698a7f45bd57	-0.2141583558509221
190	0x3fb1bc3b5aef221c	0.06927844019004009
191	0xbfb0b99da94918d7	-0.06533227332065238
192	0xbfbf831054f960aa	-0.12309362482608557
193	0x3fb9df8d28577d2d	0.10106737360864733
194	0x3fb58293240bdad0	0.08402366285359197
195	0xbfcb7727a657e012	-0.21457381841878537
196	0x3fc3baf0c4694840	0.15414247122186175
197	0x3fc2f206b94b7006	0.14801105544654564
198	0xbfb5a0cd0fcf7efd	-0.08448487888335517
199	0xbf47f5b60c2de443	-0.000731195345323184
200	0xbfb77e65f457c935	-0.09177243438151524
201	0xbfbcc40153479b1f	-0.11236580165096342
202	0x3fbff9bc4b450422	0.12490441167484836
203	0xbfb7f98f367b66a0	-0.09365172462585258
204	0xbfb7abb463b528a1	-0.09246375498074368
205	0xbfc56f2e7ec15479	-0.1674554938241817
206	0x3fb137b901f20365	0.06725651071066137
207	0xbf9567bd15df79c6	-0.020903543910998378
208	0xbfc501bf3425cfcd	-0.16411581083559526
209	0x3fa8b96cabae8754	0.048289676625485584
210	0xbfc24e00b1f03c6b	-0.1430054539527846
211	0x3fa90b06a968f30c	0.04891224687569293
212	0x3f691a27d5e448b0	0.0030642297780412928
213	0xbfc083783c01df7a	-0.12901213579220522
214	0xbf93d54cc5f409be	-0.019368362028225887
215	0xbfb7302918684d51	-0.09057862134823337
216	0xbfb09a3d71f01135	-0.06485351592715889
217	0xbf707576aaca9d31	-0.004018271964617613
218	0xbfc050f19dcf3cf9	-0.1274702091745679
219	0x3fcc19b13c61b8b4	0.2195340676148071
220	0x3fc023fd78695dd4	0.1260983312556464
221	0x3f9dd7e387e7fc51	0.029143862886482023
222	0xbfcd415aba6d032a	-0.22855695822547634
223	0xbfa0a9b0d039daa8	-0.032544637125217435
224	0x3fb8b0f3deb54a76	0.09645008265696639
225	0x3f9f57b664661d2c	0.03060803401743077
226	0xbfa7cae97b9676e4	-0.04646997102393671
227	0xbfcc432fbf5e1477	-0.22080036968342018
228	0xbfc83f05f09a1a7b	-0.18942331550734423
229	0x3faceae62271382f	0.056479636864068865
230	0xbfcc3e35c08a5b82	-0.2206484975947341
231	0x3fb070413ea2369c	0.06421287325994246
232	0x3f90f0d6a71ae87a	0.016543725919043052
233	0xbfbbf2444d6679b6	-0.10916544809013015
234	0x3fcaac5bd07f290c	0.2083849685717002
235	0x3fa989d393df5541	0.04987965755541746
236	0x3fb8793791df38dd	0.09559962569548781
237	0xbfc1e9b94086c79b	-0.13994517946917714
238	0xbf960f0166277b6f	-0.021541616306304186
239	0xbfc49bdf120ae531	-0.1610068166826664
240	0x3fc090c586f45dd2	0.12941807832315405
241	0x3fbafe450de81a14	0.10544234838025829
242	0x3f90263f98475fa4	0.015770906133041898
243	0x3fb74a0fe034786c	0.09097384666208236
244	0xbfb9f3b8d6195a6e	-0.10137515284564255
245	0x3fa9d58aac4a6677	0.050457318812914424
246	0xbfc1f9693f423392	-0.14042392338560866
247	0xbfc89535e6ad3725	-0.19205354465014426
248	0x3fb58a105df83774	0.08413793844394296
249	0xbfbe3acb9ab5e4b7	-0.11808464552986463
250	0x3fb75b74fac5cdb4	0.09123927233104362
251	0xbfc2ccd62b8199e8	-0.14687611698464242
252	0xbfb12383dc4d6dc3	-0.06694816711881572
253	0x3fb39881d2d38952	0.07654582402350243
254	0x3fc16bf3951cbc1c	0.13610691815253595
255	0xbf957ad1fd08d2dc	-0.020976334637640245

gat1.att_r f8 [1, 3, 128]
0	0x3fa0ff63baaca725	0.033198467767148444
1	0xbfa39ad673010c60	-0.03829069284304221
2	0x3fb3c2b63e1922a3	0.07718981758183445
3	0x3f854d40e69178f2	0.010401255642304073
4	0xbf358a44e6bee0eb	-0.00032867605363719074
5	0xbfb9e16cffacd5b1	-0.10109597436970465
6	0x3fa308125a5cac43	0.0371709571175747
7	0xbf6ab1efc3288c89	-0.003258674894156825
8	0xbfb5888e719522b9	-0.08411493561755891
9	0x3fa17f1f13c532e2	0.0341729842790295
10	0x3fbad2370c2160a4	0.10477012678291203
11	0x3f817e9bf43b0645	0.008542269125771837
12	0x3f79c51afdb5357f	0.006291490014814881
13	0xbf99e8b1e1df0006	-0.025301722918584367
14	0xbf8283832ab4c754	-0.009039902439869664
15	0x3faf8a533e054dec	0.061602212258232786
16	0x3fa89ea1ba8f2591	0.04808526422818738
17	0x3f8d046b91365e37	0.014168587082891466
18	0xbfa2bae1bba5c130	-0.036582044750391396
19	0xbfa40397eed84a91	-0.03908991613947877
20	0xbfafabc8fb3bbaea	-0.06185749117672919
21	0xbf7f6f1d7e44061f	-0.0076743270949477796
22	0x3f8c2c475b40a103	0.013756329986862164
23	0x3f85c32503b1319a	0.010626115012336613
24	0xbfb0feccbb89bcd5	-0.06638793543401118
25	0xbf9f205aba0dbbf5	-0.030396859746755173
26	0xbfb25749a43691c2	-0.07164440402136221
27	0xbf4d64a76d2ba8e0	-0.0008970086585951241
28	0xbf988dc7bd1272d8	-0.02397834865097334
29	0xbf454a3a203262a9	-0.0006497176949720923
30	0x3fbe39b843333931	0.11806823387744171
31	0x3faae3144bdb55f8	0.05251372743593302
32	0x3f9dd0a2ddd44d3c	0.029116196431528282
33	0xbfb0a89af7a47c1d	-0.06507271333656246
34	0x3f3386b09b690aa5	0.00029794513412554686
35	0xbf60704bde27e817	-0.0020066720765017465
36	0xbf3643c110ee4fa4	-0.0003397318222877427
37	0xbf46227165e2dddc	-0.0006754926396501065
38	0xbf744e034d1d79f5	-0.0049572113947235945
39	0x3fb0c10c0644519d	0.06544566300391925
40	0xbfac1e0346448fd7	-0.05491647942315552
41	0xbf7a72970cbda5d6	-0.006456937826308592
42	0x3f838b718a7abc48	0.0095433111558504
43	0xbf30565aeae45079	-0.00024928779284150816
44	0xbf592c8ca850fd67	-0.0015365003212222895
45	0x3f64a35003e99e89	0.00251927974686678
46	0xbf64638857dda36e	-0.0024888670877100593
47	0x3f926b1ed2f9d299	0.017986756922669576
48	0x3f627a6fdf1b5228	0.002255648135227401
49	0xbf80035e0e95d88d	-0.007818922824963681
50	0x3fad5044966edd68	0.05725302063313614
51	0x3faf80ba4ab1d41f	0.06152898942756501
52	0xbf6be71c3bc798e6	-0.003406100410063495
53	0x3f8909ad132e1ff3	0.012225486896355142
54	0x3f87d2e39660aaa5	0.011632707621250413
55	0x3f7b6612ab5620ea	0.006689141203772156
56	0xbf966872e34d0990	-0.021882815478656392
57	0x3fb2d09539f6d2a1	0.07349522271290222
58	0x3faddfe94021ba32	0.05834893138750309
59	0x3f8b837e29d1f515	0.013434396411180086
60	0x3fa347997dd4354e	0.03765563641546042
61	0xbf8580020b272d23	-0.01049806210075716
62	0x3fbb885190b6c03d	0.1075488069825505
63	0x3f705f5ee13f3fcb	0.003997202515122876
64	0xbf59d58326af968d	-0.001576784207594359
65	0x3f396d15be6ad67b	0.0003879716954700918
66	0xbfa75d89e7bbb861	-0.045635518586877984
67	0x3f7000ed6add0dae	0.003907134448869183
68	0xbfb54c0f915212ed	-0.08319184587351076
69	0x3f75e1743022ed4b	0.005341962680343325
70	0x3f6107a7df5f0faf	0.002078845859587695
71	0x3fb3d5dac7551459	0.07748191229355096
72	0xbf9d419119e1d073	-0.028570429997174473
73	0xbf39f7e22137c31f	-0.0003962447237589195
74	0xbf72402782dcf803	-0.0044557135968812415
75	0x3f93c4321b193399	0.019303114799459207
76	0xbfbd2038c20046fd	-0.11377291427950449
77	0x3f9eede57e46a270	0.030204377968092222
78	0x3f6fe1cf0251b7a5	0.0038918536325160563
79	0x3f9d44781416dd08	0.028581501222757516
80	0xbf8075ea29a724da	-0.008037404438157859
81	0xbf8d862d703a0adb	-0.014416079509151405
82	0xbf95d91395027805	-0.02133589360220613
83	0xbfabc849e0c301ff	-0.05426245564149567
84	0xbfa7a9ea25406239	-0.04621822075586519
85	0xbf6624931db0acf2	-0.002702987037556442
86	0xbfb35f43ed01b936	-0.0756723836545675
87	0x3f6d624a01611c74	0.0035869069497809717
88	0xbfa905648b4fd115	-0.0488692684229212
89	0xbfacbe70ddb9f6f9	-0.05614044863339802
90	0x3fa0847b22916d5e	0.03226074978803227
91	0xbfb9bd6f1bb4a6ec	-0.10054678369911202
92	0x3f7e8bfea4aad9bf	0.007457728099942106
93	0x3fb72d925705f5b6	0.09053911804763612
94	0xbf730820579ebf39	-0.004646421753861146
95	0xbf9c4087180fc0a0	-0.027589903682326722
96	0xbf8db2c549abd8d5	-0.014501134215134584
97	0x3fbdde82b8d3d6f9	0.11667649280920135
98	0xbfa2520984654ff1	-0.03578214398535796
99	0x3f6b1b1f3c1fa42c	0.003308831220227867
100	0x3fbd23eb744780da	0.11382934178209628
101	0x3fa736ed12ce5eb1	0.04534092764441534
102	0xbfaac994ff17447a	-0.05231919874098252
103	0x3fba515276ee0d42	0.10280337718545687
104	0x3fa22f2588b8a837	0.035515950145353185
105	0xbf7eaa9d64607a18	-0.007486929715041522
106	0x3f83149d74cd055b	0.00931666386316248
107	0xbfaee7f4cbab1eda	-0.06036343561350828
108	0x3f6b0acf58ab6489	0.003301053021783466
109	0xbfb7259676765cdb	-0.09041729347369502
110	0x3f648a332038fc4a	0.002507305007184911
111	0x3f74b20c62172ef1	0.005052612659209408
112	0x3fb1245398428fc9	0.06696054904256167
113	0x3f95129c305401a7	0.02057880444499607
114	0xbfa10daf58b9978a	-0.033307532864269865
115	0xbf9a5ffc3d0d3a6d	-0.02575677988653029
116	0x3fb337f2d63963ce	0.07507245760042666
117	0x3fb1f51c7e67b289	0.07014635168133955
118	0x3f82aa40bc3895ce	0.009113794082689444
119	0xbf6d3ee50d6a4cce	-0.003570029609656445
120	0x3f8c7567fd32a3d0	0.01389580956886674
121	0xbf9c879c790593f2	-0.027861065756400856
122	0xbfb3afa2cd190eb7	-0.07689874179146271
123	0x3fb8fb264393000b	0.09758223676453796
124	0x3f6155b72b22c58d	0.002116067648864023
125	0xbfae8c9bccaf0894	-0.05966650842266677
126	0xbfafa49057f42c69	-0.06180239747671907
127	0xbfa7bb1408f464fd	-0.04634916886625182
128	0xbf7289c0d4ea9dc1	-0.004525902985427378
129	0x3fbaf98e1cfc4396	0.1053704090848114
130	0x3fa1c44640e7f69a	0.034700580046757426
131	0xbfafad3e1ead97d9	-0.06186861156929497
132	0xbfb088bc2e0b72ae	-0.06458641170633925
133	0xbfbcd2de95d33857	-0.11259261281813458
134	0xbf5ba40fa5db9d74	-0.0016870644389486962
135	0x3fbaa7c752ba7d63	0.10412259835947206
136	0x3fa5c11cbfff85e8	0.042488954961083014
137	0xbfb5a8da39e32b0f	-0.084607733853016
138	0xbfbaf689a8232e30	-0.10532436709325377
139	0xbf450390a8a12ee5	-0.0006412941304545198
140	0xbf8078ea8b000abb	-0.008043129317234379
141	0xbf877822fbe345fb	-0.01145961123657723
142	0x3fa832913d4abd91	0.04726079819863139
143	0xbf8ea9f031e3deb1	-0.014972569010282074
144	0x3f69cf2d70d26da3	0.003150547744167746
145	0xbf53d103f11c19b2	-0.0012095011229021732
146	0xbf7538ea61222918	-0.005181232018126168
147	0x3fa7de200ead6f2b	0.04661655596893718
148	0x3f96abefd7f8b73c	0.022140262181145717
149	0x3fb26b8bf8c907a5	0.0719535334001465
150	0x3f9db7e1840a52f0	0.02902176254663663
151	0x3fa41759448a94ba	0.039240636460172465
152	0x3fb0c7fcd8d4beeb	0.06555156987883108
153	0xbf99117f8b06f18f	-0.0244808128934309
154	0x3fb476dc685565ee	0.0799386744232817
155	0xbfac0926c28c77cc	-0.05475731968748185
156	0xbf3d1a1a721030ce	-0.0004440607609133119
157	0x3f4bdf9f35a0f9ad	0.0008506324186397428
158	0xbf70d93addfc3d57	-0.004113416623808894
159	0xbf8363a32241f4ff	-0.009467386706314416
160	0x3f7c8af182b59b1c	0.0069684442526980715
161	0xbfb4d1c80abdc0d5	-0.08132601034390359
162	0xbfb2fac6919f583e	-0.07413903289065701
163	0x3f75d6232b1f584e	0.005331170441385492
164	0xbf8200b404442482	-0.008790403728669686
165	0xbf7406b770bd7ba7	-0.004889217914608424
166	0x3f95ad71babe506c	0.021169449828065387
167	0xbfb830e7991b73f8	-0.09449622619599995
168	0x3fba288304f28bf2	0.10218066092288305
169	0x3fac105aeb72ff52	0.05481227993141026
170	0xbfb46096426d3bf1	-0.07959879991288667
171	0xbf5ba06b0e1e8ca9	-0.001686195894287571
172	0x3f66843d8be1be23	0.002748604019011018
173	0x3fb8a4a29244dd31	0.09626213141460906
174	0xbf869fef51a49c52	-0.01104723899750418
175	0xbfaf32021e8f7929	-0.060928407888911025
176	0xbfbb7af22c712e52	-0.10734475693714643
177	0x3f4ee4a20f9008e4	0.0009427825272043913
178	0x3f75664547a5fcc6	0.005224485992925304
179	0x3f57adf6b7739e98	0.0014452847806810994
180	0xbf5dbcca1463703c	-0.001815030425453847
181	0xbfa2770aa92b982e	-0.03606446566645648
182	0xbf806773af977a3c	-0.008009818836339659
183	0x3fb1ae941b09e1fa	0.06907010707971742
184	0x3faa08e7e959c792	0.050849196658318566
185	0xbf629b7157ccb285	-0.0022713865022495083
186	0x3f25fd819749cbd4	0.00016777235909479096
187	0xbfa3b1e5709b9056	-0.03846661567311631
188	0x3f34ef44280527a8	0.0003194371602331888
189	0x3f4619dd89b0b081	0.000674470112590267
190	0xbfb768a91f82eb25	-0.0914407445842867
191	0x3f903e233a2d5bf0	0.01586203615746834
192	0xbfaa2ffb3c626332	-0.05114731895554882
193	0xbfb6d7fa13bc961e	-0.0892330454049319
194	0x3f8017015be857bb	0.007856379143998162
195	0x3fbb1ef0065cbc3e	0.10594082026794724
196	0xbf80e95e318cd19e	-0.008257614028118362
197	0x3fa33a668a92f782	0.03755493585184323
198	0x3fa13cec3832377f	0.03366792856205247
199	0x3f45b1447b0a7ce0	0.0006620010736532421
200	0xbf893cb4fe2bd395	-0.012322820669831628
201	0x3f5b172a96d5f573	0.001653472510354828
202	0x3f3c93328bccbb40	0.00043601974521128087
203	0xbfab5050ba7fe18d	-0.05334713245969445
204	0xbfb5ce09fa33efc0	-0.08517515524357488
205	0xbf629678bbb892b0	-0.0022690160819983304
206	0xbfba2f888a4c1d73	-0.102287801517482
207	0xbf2a025a486652ef	-0.00019843437275981294
208	0xbfbd03abed66c697	-0.11333727403578063
209	0x3fa79e81babe143a	0.0461311855752133
210	0xbf813d06f2d831b1	-0.008417181287790539
211	0xbf9ce74a0558ae13	-0.028226048065489517
212	0xbf52fe0f3340b474	-0.0011592052878868471
213	0xbf2cc18115b92bdf	-0.00021938992255096567
214	0x3f52a2a420cb51b9	0.001137409478521352
215	0x3fb66f6c937fc2fb	0.0876376972298764
216	0xbfa06324c6db69b2	-0.03200640609221085
217	0xbfbcfc069e649237	-0.11322060935032928
218	0xbf203e3f4243dd8b	-0.00012392542078719054
219	0x3fb005578f9a41e0	0.06258151298448622
220	0xbf61ff0233fe7e1c	-0.002196792891439049
221	0xbfa5d88bd51ccc2c	-0.04266774155112105
222	0x3f93a9f8a40fb0b3	0.019203076375490635
223	0xbfb805445db3fe43	-0.09383036887810996
224	0xbfb4c6561b89c6aa	-0.08115137264555963
225	0xbfb85719a29125df	-0.09507904261513243
226	0xbf57d10e0b6039a1	-0.0014536511566834792
227	0x3fb615c65bee55be	0.08626975769433096
228	0xbf9589c0e2b1c87b	-0.021033300243694413
229	0xbfb9d1566da05bb5	-0.1008504884378983
230	0x3f984b2a7ad294aa	0.02372423529290716
231	0xbf7d66d5b70a6a35	-0.0071781490556995136
232	0x3f714dad2adec74c	0.0042244686464288465
233	0xbf405bb943bdbaed	-0.0004992155659076771
234	0x3fb217b8383b1ae2	0.07067443249534791
235	0xbfad0ef990a11fe9	-0.056754874138789387
236	0x3f71bd3791554ac6	0.004330842076643198
237	0xbfafb00210ed537a	-0.06188971001271333
238	0x3fb5997565bafd8c	0.08437284215596302
239	0xbf4a7aadcf9f7ed7	-0.0008080815016419895
240	0xbf58740c4cc2c2a3	-0.0014925117603007763
241	0xbfb33e0947bda006	-0.0751653480671167
242	0xbf6b8f86a8543fd5	-0.0033643369703284334
243	0xbf9e0ac63703ee63	-0.029337975604887833
244	0x3fae211231c23b83	0.0588460622540117
245	0xbf70292681291ad8	-0.003945494087537603
246	0x3f6e9a093d2ef24c	0.003735559506337338
247	0x3f92c1f0511b6e5e	0.018317942572009797
248	0x3fb12fc2958fbc31	0.06713501120951616
249	0x3fad16095354cb91	0.056808749601621085
250	0xbf64c8c67ee4b47c	-0.0025371434086510197
251	0x3f954c669ddcad5a	0.02079925859940821
252	0xbf9b465f11190ba3	-0.02663563291413208
253	0xbfb0a34e3ac3460a	-0.06499184546125761
254	0x3fb48c0130164498	0.08026130126951825
255	0x3f5766888aa74c4c	0.0014282544531070305

gat1.bias f8 [384]
0	0x3fa71fac62525923	0.045163523676068594
1	0x3f80c2e67976a84a	0.008184242803356185
2	0x3fa3a32d04a152c8	0.038354307952123856
3	0x3fa0306958c45d82	0.03161935051519561
4	0xbf7695ce6c019ef3	-0.005513960204644996
5	0x3fa2a80525de4dfe	0.0364381417013213
6	0x3f9bd68355016687	0.027185489714929758
7	0x3facebf919930f39	0.05648783147037623
8	0xbf88c00ff8c6e320	-0.012085079936569765
9	0x3f90f2e9724f4d67	0.016551635362544028
10	0x3f7fef7b280544ce	0.0077967463297039085
11	0x3f74d35fbf874747	0.0050843944704455695
12	0x3f9b9c026c036dec	0.026962316362967018
13	0x3fa5ac19e75f3549	0.042328652852669686
14	0xbf71af0d362b1a37	-0.004317332847398484
15	0x3fa64b7978ee20b6	0.043544574748979256
16	0x3f9a837a122fe53a	0.025892169342090578
17	0x3f7fbf933307692f	0.007751059529676404
18	0x3fa5974fe7351c7f	0.04217004487377895
19	0xbf86e1c8758fe75b	-0.011172834480010321
20	0x3f8e4e220f755c81	0.014797464462999567
21	0x3fa3748a330955ef	0.03799850342754129
22	0xbf5c4c48933062f9	-0.0017271717777075908
23	0x3f956129a2cb2c65	0.020878458558211927
24	0x3f73406da06e880c	0.0047001154224819534
25	0xbf85abddf04b4321	-0.010581716437998491
26	0xbf74727437ca2501	-0.004991964317590859
27	0x3f7e7018af8520c5	0.007431122234557279
28	0x3fa578bea30078a7	0.04193683376091544
29	0xbf86cd774285b69a	-0.011134082524871847
30	0x3fa16e6aae009d0e	0.03404553770115558
31	0x3fa66e0392be38d1	0.04380808988854457
32	0x3fa7a951b2db1f75	0.04621367748546749
33	0x3f95e03d1febdc9c	0.021363215516399067
34	0x3fa5ff880fe2c127	0.04296517557065931
35	0x3fa90cf6d4a2c2da	0.0489270338597458
36	0x3fa29b142f447c39	0.03633940770145511
37	0x3fa55d283151db50	0.04172635652587664
38	0x3fa6b6097c588a19	0.04435758250135197
39	0x3fa2a3de27ba2120	0.03640646204900322
40	0x3f896cbea86b0681	0.012414445414268062
41	0x3fa10ae979258160	0.03328637698973824
42	0xbf62b15ce29e5505	-0.0022818388142221723
43	0x3f9e5d0ef34c2858	0.029651864623737673
44	0x3f88b37da37901e6	0.012061101485529368
45	0x3f7c461d4c671739	0.006902803847372679
46	0x3fa70cbaec431d7f	0.04501899847087553
47	0xbf809a62fd547afc	-0.00810696921922504
48	0x3f94171239022ad5	0.019619259576340326
49	0x3f9d9b07e7521b91	0.028911708348939028
50	0x3f9b61cc0c1d4c7f	0.02674025367680288
51	0x3fa80a3a7d653cca	0.04695303707796368
52	0x3fa70f632126dacb	0.045039270207259806
53	0x3fa3ca2e7ddcecbd	0.03865189825452251
54	0x3f9e318c262808b9	0.029485883549576573
55	0x3fa466d6b744178a	0.039847097274146995
56	0x3f7d574b9769e4c8	0.0071633293906582865
57	0x3fa75aa8ef581ec1	0.045613555161307946
58	0xbf7b7c398a4f9470	-0.006710266844469279
59	0x3fa5195d6eede251	0.04120914439312585
60	0x3f9a60975088fa1e	0.025759090700598113
61	0x3faa7b15fa71cb76	0.05172032053169222
62	0x3fa88da213c00f1a	0.04795557490436249
63	0x3fa6a9161e54381a	0.04425877685763187
64	0x3fa62ac38663561d	0.04329501166800418
65	0x3f8f68aa016128eb	0.015336349646663602
66	0x3fa6a1acb55fe7d5	0.044202229633768
67	0xbf8e27e474caf3bf	-0.014724526228173105
68	0x3fa3d7f498e219e2	0.038756984388829144
69	0x3fa370f788c3aeb6	0.03797124428259961
70	0x3f9e7cfe8da7a3b9	0.029773690601277745
71	0x3fa877e8ec03608f	0.04778983956356441
72	0x3f78f920333a86e1	0.006096959859549251
73	0x3fa6c861aa8102f6	0.044497539580793985
74	0x3f9e751588019c6d	0.029743515421071388
75	0x3f9e4708def7222a	0.02956785069344129
76	0x3f9a587f0e4ed030	0.025728211639673926
77	0x3faa50b4ab55488a	0.0513969859263322
78	0x3fa88f9be33c2e7e	0.047970649231584325
79	0x3fa0d0acbab51d8c	0.0328420617975623
80	0x3f88c92e2e0fae2d	0.012102471142461624
81	0x3f7980967dac55e2	0.006226146559830311
82	0x3f93ef12d27d9405	0.019466680619547833
83	0x3fa7c1d28ffd4361	0.046400623394794456
84	0x3f983f79ac95b97b	0.023679639013999925
85	0x3f96b85fdffe8688	0.0221877079453692
86	0x3f9a030d32e58abb	0.02540226576946723
87	0x3fa29fe95f3d8e3d	0.03637627875903291
88	0xbf858d1c4ac4a293	-0.010523053199521548
89	0x3f936a6983bbb4a1	0.01896061769996449
90	0x3f5245cd3dbfbe43	0.0011152748402273461
91	0x3fa46f00240189df	0.03990936698461999
92	0x3fab9a50a1d61767	0.053911704783827834
93	0x3fa594e08df3b2a5	0.042151467636221164
94	0x3fa4fee524104fad	0.04100719514113336
95	0x3f33fa93dc3c9aa2	0.00030485257979010795
96	0x3f7f86bc8307ff17	0.0076968539947299885
97	0xbf826f5d5cc14bd2	-0.009001473801765334
98	0x3fa45574f59d2707	0.03971448419777173
99	0x3fa87e81213f1ef3	0.04784015208093519
100	0x3fa8bbc31e5f3f78	0.04830751176598275
101	0x3f94c49949b86c6a	0.020281214832817453
102	0x3fa8c05936d2a1b5	0.04834250253890408
103	0xbf8471d5b2e3bcfa	-0.009982747575547613
104	0x3fa2c2dc81835692	0.03664292412728999
105	0x3fa405d7f0499b30	0.03910708244511907
106	0x3f9f9056b8f207e3	0.030824046171353713
107	0x3f96d01dd89b8109	0.022278276773136905
108	0x3fa8596e365d9187	0.04755730069772129
109	0x3fa4e593af8ac313	0.04081403272483022
110	0xbf9105171246d146	-0.01662097977687551
111	0x3fa5f8ee53917925	0.042914817525103545
112	0x3f94f0a1c28dff7b	0.020449187755275027
113	0x3fa38b6d08b76547	0.03817311030770525
114	0x3f9bc19334d42c1e	0.02710561761800189
115	0xbf8cf4090fad6013	-0.014137335577899568
116	0x3fa6a8ec88fb57b3	0.044257537576114635
117	0x3f9e51f62d21874a	0.029609533791137545
118	0x3fa6c7e391bccf8a	0.04449378160498359
119	0x3fa9e3337415237e	0.050561530990825596
120	0x3f9d4718814018b1	0.02859152115709013
121	0x3f9b43ac157f8b46	0.026625336467883252
122	0x3fa5d260a1895bda	0.04262067767984208
123	0x3f83ac83a8c5bbae	0.009606388652825117
124	0x3fa498d49ff62183	0.04022850468305974
125	0x3f9cf6bc30622893	0.028284969761934575
126	0x3f8bb13f720c00da	0.013521667163786711
127	0x3f8354f5524d5be9	0.009439388822711297
128	0x3f51f7bc61139ed5	0.0010966624870948811
129	0x3fa5bc7265e3c1cd	0.04245336049814661
130	0x3fa27da04c42ca33	0.03611470156592524
131	0xbf855783d2ec85e9	-0.010420827745806842
132	0x3fa7b88c0bde9091	0.04632985730066353
133	0x3f939a403917800b	0.019143107876402648
134	0x3fa354048431b64f	0.0377503787393435
135	0x3fa5191447ded0e4	0.04120696427654183
136	0x3fa1172ca24fe202	0.033379931272012456
137	0x3fa799aef6717325	0.04609438665713687
138	0x3fa50ca3867b1206	0.04111205116854326
139	0x3f8864517345a82b	0.011910091715169177
140	0x3f933bcb43a22196	0.018782783511171873
141	0x3fa3773fd42b7df9	0.03801917519535531
142	0x3fa2f1139e506f7b	0.03699551875635528
143	0x3fa4bfc43fbfc5d4	0.04052556303203017
144	0x3fa63272cf11dcd5	0.0433536412974093
145	0x3fa773466bcb930b	0.04580135408267524
146	0x3fa38306b58fce3c	0.038109025634096544
147	0x3f9c4ac835ccbd1a	0.027629020961453234
148	0x3f959c9c0697a89b	0.021105230238312882
149	0x3faa2a6bed57c5c0	0.05110490104915355
150	0x3f823e00e25d5d7a	0.008907324703314446
151	0x3fa7f34ef1f75da0	0.04677817062082146
152	0x3fa663bc0be1fc17	0.04372966427853713
153	0x3f97d389f9816bb7	0.023267894605264874
154	0x3fa484c6ee79aae8	0.04007550870013238
155	0x3f9bcbf811ca84fa	0.027145267568475774
156	0x3fa2b329eb95e421	0.03652316094207487
157	0x3fa7d8909ec2e61b	0.04657413423542441
158	0x3fa70af50ad78129	0.04500547177645082
159	0x3fa886fa6c84c6da	0.04790480208101906
160	0x3fa66eaff6fc4b1e	0.04381322755775428
161	0x3fa7d9bbe6310d61	0.046583053445398155
162	0x3faa8de1617f9e13	0.05186371150176341
163	0x3f649d282050e822	0.002516344424774012
164	0x3fa625a0374f88be	0.043255812408248925
165	0x3f752273c9fb7888	0.005159809399371558
166	0x3f884aebb8024118	0.011861650040629487
167	0x3f8f81fc6034683b	0.015384647069868964
168	0xbf876dc279299863	-0.011439818689904685
169	0x3f8bec949e0fb6e8	0.013634835313463836
170	0x3fa551aa68d140f9	0.04163868455418824
171	0x3f93df82cd6fea1a	0.019407314099206464
172	0x3f783c02328331a4	0.005916603644618244
173	0x3fa1d245dc7c4fd1	0.03480737987970851
174	0xbf7a974b41af238f	-0.006491941424379712
175	0x3facb93a36035e21	0.056100672810938564
176	0xbf84eb6cfca34a3e	-0.010214663944144605
177	0x3f9bbd0e564683f4	0.027088378921352033
178	0x3fa8c3f98cd34437	0.04837016910608621
179	0x3f99cfa27e41e42c	0.025206126171245
180	0xbf7384f97702bf08	-0.0047654862138839585
181	0xbf8ff611cc2006ae	-0.015606059114364381
182	0x3f78e3801e837094	0.006076336351011364
183	0x3f98900ce40d6141	0.02398700849457325
184	0xbf839429593e167e	-0.009559939418760207
185	0x3fa41ca14e0dc9e7	0.03928093030744489
186	0x3fa8959bb489ac31	0.04801642016249053
187	0x3f8af023ea9bd092	0.013153343770206303
188	0x3fa4da45b55e5135	0.040727785482121005
189	0xbf8ff701a33dbc52	-0.015607846063828177
190	0x3fa851a1ccc9ece2	0.04749780297148633
191	0xbf87ec379802211d	-0.01168101723330089
192	0x3f9af82bc8250364	0.026337322321754356
193	0x3fa3d68c8e4c6ef7	0.03874625432055539
194	0x3f757cef20534dac	0.005246099555012245
195	0x3f67df6cb5a6e5a9	0.002914154361147243
196	0x3f9921dc4ed01b74	0.02454323035274393
197	0x3f9d79e0ee979aab	0.028785242617142142
198	0x3f956309cd90b51c	0.020885613605220774
199	0x3fa30fec70a2aed3	0.03723086237854791
200	0x3fa3ecd0cb3b162a	0.038916134651611436
201	0xbf6589e94d8751fb	-0.0026292378135883677
202	0x3fa625a9fd02999c	0.04325610364439855
203	0x3f8297aab4cb0285	0.009078344004025194
204	0xbf7d354f44cb405b	-0.007130918162786849
205	0x3f92140f9a5ce352	0.017654651447830468
206	0x3fa4aaf7fc89e364	0.040366887643307675
207	0x3f99c5458afb0d69	0.02516659413119041
208	0x3fa4841516896b93	0.0400702085505237
209	0xbf8bfa7b29d46c7f	-0.013661348547023387
210	0x3f9682fb016ee147	0.021984025919409757
211	0x3fa635191a200566	0.043373856009575815
212	0x3fa8fdb5e0d51d22	0.04881065721070345
213	0x3fa306a986689e1e	0.03716020360689874
214	0xbf8baf8a7d164db9	-0.013518411581378996
215	0xbf6d8bcdc2e9aea2	-0.0036067026879232503
216	0x3f8eea93b1c803db	0.015095857489542943
217	0x3fa6c0be2c2526fb	0.04443926133042272
218	0x3fa30257e0a9994c	0.03712725274526693
219	0x3f937d5403ceb364	0.0190327765773647
220	0x3fa310ac0546b00a	0.037236571926172315
221	0x3f8e83a0caef8146	0.01489949816999626
222	0xbf5357ab67a3e0be	-0.0011805700183327573
223	0x3fa6a4766ed06b0d	0.04422350027762976
224	0x3fa6f9ca152fe3ee	0.04487449177390333
225	0x3fa586bb62b37060	0.04204354839177493
226	0x3f98a3e8d1c6b98d	0.02406276493427977
227	0x3f9f00d30a3e21e3	0.030276582241215776
228	0x3fa1c19a80d51e17	0.034680202700254785
229	0x3fa655062951f505	0.04361743215938855
230	0xbf70b559c5e1188e	-0.004079199481628616
231	0x3f8df9b872091bd2	0.014636460285272355
232	0x3f843d87719968d6	0.009882982401155632
233	0x3f9cd7f0dd456d78	0.02816749907047497
234	0x3fa77cf6be10c967	0.04587527341972724
235	0x3fa6e2bf0bb7c5da	0.04469868677177731
236	0x3fa341b81d1b36ab	0.03761077266027021
237	0x3f978bbe1a2dcc7a	0.022994013164361317
238	0x3f86cde22e5629ff	0.011134879149513386
239	0x3fa1d0edca7b66db	0.034797125784917525
240	0xbf7e8a5135db2739	-0.007456128337887163
241	0x3f9b6019325ff70b	0.02673377389873281
242	0x3f81e1de0bd5f0d4	0.00873158906573971
243	0x3fa6b32e8336a70c	0.044335797803183835
244	0x3fa5200ee32218b8	0.0412602092992968
245	0x3fa7536349cb22b9	0.04555807376670402
246	0x3f945e68707aa586	0.019891387810877535
247	0x3f8e5717ddd36ce4	0.014814554650391228
248	0x3fa8e4c88a16cb02	0.04862047849328201
249	0xbf554aac6ebad445	-0.0012995418464190206
250	0x3fa7d51ac56fbd0d	0.04654773388016951
251	0xbf8cb496fb480ee7	-0.014016322654249304
252	0x3fa58beae5b0f7ba	0.042083111322866754
253	0xbf3ab56f077735b5	-0.00040754280732077246
254	0x3fa5fac948918641	0.04292897234769245
255	0xbf63a166c4e80a8e	-0.0023962981424586255

gat1.lin_l.weight f8 [384, 50]
0	0x3f7a19e1c7805619	0.006372339201353516
1	0xbf48ccd06254a1d7	-0.0007568376064784288
2	0x3f68352ae019d561	0.0029550397310297715
3	0xbfa1b013d20304b2	-0.03454648913021553
4	0xbf817ab14d27941c	-0.008534798781463286
5	0xbf829449d14bde68	-0.009071900081365672
6	0xbf7f181ba1d7c506	-0.007591350496555243
7	0x3f9eaddd98a8e411	0.029960119669542765
8	0xbf8913f3604aef77	-0.012245084167595384
9	0x3f95eda8fcfcd2c5	0.02141441387284961
10	0xbf04dabfd417345f	-3.977678216991113e-05
11	0xbf9da595baa3d51c	-0.028951968685722126
12	0x3fb6b77efc360592	0.0887374273061339
13	0x3f83a62e4070cac5	0.009594308225222456
14	0x3f9940eb22810896	0.024661706906279855
15	0x3f72ed638d72964b	0.004620922925061398
16	0x3f865f647dfaf1dd	0.010924134344684805
17	0x3f99f99a47abc1d3	0.02536622106976145
18	0xbf71224d5ee851f7	-0.0041831037801966986
19	0xbf8df52dc37bd29b	-0.014627797630489872
20	0xbf622c8fde6571b5	-0.0022185144363630845
21	0xbf8a6d3d051c581e	-0.01290366813513449
22	0xbf6786d9842340f6	-0.002871918522124979
23	0xbf968ca8b9d906fc	-0.022020946830031626
24	0xbf813229bfe8472e	-0.008396459740683673
25	0xbf909b22bd21874d	-0.01621679572452388
26	0xbf93538a4692db98	-0.018873367841219485
27	0x3fbc945510082e0e	0.11163837090878578
28	0xbf3325248766d625	-0.0002921308690944944
29	0xbf99bd0b4e1e0353	-0.02513520874299797
30	0x3f95de303157ecff	0.021355393420873444
31	0xbf24d07979d0f546	-0.0001588009153311953
32	0x3f7f2ad74025f300	0.00760921556718297
33	0xbf812504cd5c7e90	-0.008371388928537088
34	0x3fb0e3409f37dd3a	0.06596759688533363
35	0xbfa190eb2aef2527	-0.03430876635645524
36	0xbf9b0aa37bcba8d4	-0.026407770567779945
37	0x3f81eada3c944440	0.008748726819734043
38	0xbf960607d9b0d8cd	-0.02150738016299485
39	0xbf8962492b43811b	-0.012394496567538263
40	0x3fb10e8290a694b3	0.0666276553298129
41	0xbf8cb3fadca40f3c	-0.014015159471916776
42	0xbf624bc74885a70e	-0.0022333996059175137
43	0x3fc18e863f2e9cfe	0.13716199955999991
44	0x3f7dc6c16eeb256a	0.007269626234753227
45	0x3f8d6adce646f903	0.014363981034759115
46	0x3fb0bbc856dd1598	0.06536533470815298
47	0x3f8c11426f5023b8	0.0137047949047132
48	0x3f9a89b51f23c2c3	0.02591593744813526
49	0x3f8bba7aa0f36d61	0.013539274250823298
50	0x3f66e4e33422a8a6	0.0027946889468540457
51	0xbf51363804f59878	-0.0010505244316277012
52	0xbf7d934e0f689486	-0.007220559046378422
53	0x3f986f32d0e822cf	0.023861688614519146
54	0xbf8b82cd9fa0cb9c	-0.013433081087077352
55	0x3f9820baf7510b1d	0.02356235632420144
56	0x3f90ba6ea22ce2cf	0.01633618225898453
57	0x3f7036aeffb249d7	0.003958400334470777
58	0x3f67002ce5b75211	0.002807700815291144
59	0x3fa30d344b5f1fc9	0.03721011562407701
60	0x3f608d6db6d78e77	0.002020563397978677
61	0x3f761a2335004059	0.005396020438652804
62	0xbf92650634c6eeae	-0.017963501902825633
63	0xbf7cbb7e00adb50f	-0.0070147439936196895
64	0xbf7a30dc7ae55288	-0.006394253969422288
65	0xbf604b87b3e0918a	-0.0019891405527394145
66	0xbf9a7a18c0ee4b82	-0.025856386924327797
67	0x3f6938d1795578ff	0.003078850869015714
68	0x3f7744244359268e	0.005680219319012315
69	0x3f8eca8897ef2a7a	0.015034739624657723
70	0x3f86d5ed1dc2d804	0.011150219412552793
71	0xbf92f775bcb425f1	-0.018522109644470267
72	0xbf9b4531a8b3290b	-0.02663114158785
73	0xbf7eceb64e1c4787	-0.007521354798670893
74	0x3f584101615550fa	0.0014803422430605382
75	0x3f9cd060b72debe0	0.02813864820516787
76	0x3fa16e10c6286ba3	0.03404285830421052
77	0xbfc13f0effebd402	-0.1347368955245259
78	0x3f66df50cc1009fd	0.002792032057642445
79	0xbf981cb86326ddd3	-0.023547059108492818
80	0xbfa0a26997f45249	-0.032489108847731325
81	0x3f8418a4348c8309	0.009812624791778928
82	0x3f82bf687ba03853	0.00915414454723532
83	0x3f99915c7cc88713	0.024968571773690117
84	0xbf78410509364e8c	-0.005921382591072121
85	0x3f6c1dddaeb8a975	0.0034322099434309036
86	0xbf9ed186c1ed87e8	-0.030096154772202427
87	0xbfa00ad47289d39b	-0.031332625371681654
88	0xbf821fb52174fd73	-0.008849539836431863
89	0xbf9a81d7a69fe950	-0.02588593439575365
90	0x3f9ca5d3de86712c	0.02797633214650934
91	0x3f7c58741a7271f2	0.006920293358373618
92	0x3f98766b3578083c	0.023889231813889675
93	0xbfa6ef589b4a94aa	-0.044794815975629135
94	0xbf86791c5d7a288e	-0.010973188021371063
95	0xbf98f6255524a815	-0.02437647182629384
96	0xbfa0905d8fae25ec	-0.03235142115506648
97	0xbfbd07679e8cb53c	-0.1133942377170642
98	0x3f72786b62d4850f	0.0045093722121987275
99	0x3f701bd3908de110	0.003932787346336633
100	0xbf740f88774b01eb	-0.004897625990168279
101	0xbf76632d9ae6df3b	-0.005465677399506148
102	0x3f8add72e033284c	0.013117692439113558
103	0xbf8d5caf65f727bb	-0.01433693914340838
104	0xbf732624eb313405	-0.004675049031971139
105	0xbf78e7972994ccfb	-0.006080236891011777
106	0xbf75449bec39122f	-0.005192383836007993
107	0x3fa0b46a35874d78	0.03262645629333866
108	0xbf91a02391800020	-0.01721244407235656
109	0x3f87100c0a4ecd83	0.011261076035089307
110	0x3f0fd47248b3b8cd	6.071065680567228e-05
111	0xbf94e42ce3f56a45	-0.020401669896594993
112	0xbfa40fb778b247c6	-0.03918240879387684
113	0x3f750064990705e9	0.005127327880872092
114	0xbf7680bf94ccfe64	-0.0054938777582830035
115	0x3f715e0048059af6	0.004240037058798709
116	0xbf754cf3ee73e8f0	-0.005200341088533941
117	0x3f955bcb1dad170f	0.02085797661427252
118	0xbf95fa4f8421c76f	-0.02146267169923227
119	0xbf783373a99b793e	-0.0059084432666323666
120	0xbf77c4dac88fb7af	-0.00580296957285313
121	0x3f94033060ac9893	0.019543414974713413
122	0x3f885647db556e27	0.011883317357095425
123	0xbf9bd13e0e7ca38d	-0.027165383943756494
124	0xbf72f1769045c0f0	-0.004624808443949954
125	0xbf908034a15edc55	-0.016114065503384307
126	0x3f964ec8dc4d7f45	0.02178491444226373
127	0x3fb9ee7e8fe709fd	0.1012953854870275
128	0x3f4166aa12b3e357	0.0005310373720980127
129	0x3f73c245ae5547fa	0.004823944274294329
130	0xbf8b232b45dc010d	-0.013250673360289978
131	0x3f605dd426038592	0.0019978660130710113
132	0x3f93b50015c80c3c	0.019245148972924606
133	0x3f7ed56100deae54	0.00752771274521143
134	0x3fb4d1646d521eab	0.08132007283176772
135	0x3fabbde30887d92f	0.05418309668668752
136	0xbf80c6af5af6a41d	-0.00819146152828592
137	0xbf987c88a7c2b4e8	-0.023912558783810406
138	0x3f61f783dc545f4b	0.0021932197001993995
139	0xbf821e2ba38cc3b2	-0.00884660809387747
140	0x3fa666d295cc8cc6	0.04375322416879039
141	0xbf84a13b658cccbd	-0.010073150669631986
142	0xbf8bc767f8ca20a7	-0.013563930778460366
143	0x3f9159fc78a8393e	0.016944832672430403
144	0x3f88aa987ccd5716	0.01204413538804831
145	0x3f91198ab149561c	0.016698996611316116
146	0x3fa74b77a41dc56a	0.045497645171859016
147	0x3fadf3300f8ca58d	0.05849600019275689
148	0xbf99debb7d83b0ca	-0.025263719116012585
149	0xbf74aacb03829cd7	-0.005045693418799866
150	0xbf90a1244e0a7580	-0.016239707244144252
151	0x3f59c6c62c40cf93	0.0015732703477739681
152	0x3f6b2ec379b33a11	0.0033181970480662478
153	0xbf64f228d143b179	-0.002556876870690225
154	0x3f6f86da1970ea38	0.0038484821084499264
155	0x3f45857a80573cf4	0.0006567810202628131
156	0xbf4f1a91cbfe2db4	-0.0009492122553508759
157	0xbf9186dc92479c8b	-0.01711601870365746
158	0x3f4178213ab24f3f	0.0005331194164619259
159	0xbf6118975f5f792a	-0.0020869213576438965
160	0x3ee0c3664c6b062d	7.993354654958665e-06
161	0x3f92f9ae95562ea5	0.018530586113725395
162	0x3fb5b3b5882a32c7	0.08477339338623856
163	0xbf33516c75808110	-0.0002947702209912398
164	0xbf6ba20544246925	-0.003373155866154625
165	0x3f6bc203650ba639	0.003388411169329666
166	0xbf2b52a0f4c1b770	-0.00020845618053349666
167	0x3f34ecc119eb74ff	0.0003192874373050963
168	0xbf4ec2a661e573e9	-0.0009387314237688768
169	0xbf880f525d16c53b	-0.011747973886346066
170	0x3f3f3bc28e577c6a	0.00047658443358317723
171	0x3f6eea4a7aae2d0e	0.003773827998377783
172	0xbf9037ce57c102d9	-0.015837883096767456
173	0xbf51c4100f4bd4ec	-0.0010843426545624158
174	0x3f7412dc4d83bd32	0.004900799329546944
175	0x3f865124b3af4840	0.010896956189672236
176	0x3f97576d3486a42f	0.02279444344609177
177	0xbfa30272e9299c43	-0.0371280583975069
178	0x3f50046f0fd9e255	0.00097761960878819
179	0xbf4b8084860601a5	-0.0008392951095146829
180	0xbf473824b235c20b	-0.0007085971050582741
181	0x3f78ceb6513fa65b	0.006056511094337215
182	0xbf9694a7e0ce965f	-0.02205145177472045
183	0x3f8dbb7ddece98e9	0.014517768251448309
184	0x3f95368a1dd005ce	0.020715864247909548
185	0x3f91ad26125629db	0.0172620724384077
186	0xbf68d1096d925dd6	-0.0030293640271101636
187	0x3f74bfd49e4f7645	0.005065756359696365
188	0x3f6927df87c8d255	0.0030707708195001717
189	0xbf67ab39d7dbdc74	-0.002889264082905957
190	0x3f97c717c26d5572	0.023220416299712672
191	0xbf594130fc2f2e7f	-0.0015414217348163337
192	0xbf7653168a5ba4a8	-0.005450332688021899
193	0x3fa3dfecf63b13a2	0.038817791993586384
194	0xbf970dd48f150d5e	-0.02251369593910845
195	0xbf97781caec252a4	-0.02291912857670532
196	0x3f71a8cf19ebd1e6	0.004311379422450723
197	0xbfa5e358875087c7	-0.04275013591565329
198	0x3f64d49458462181	0.002542772041298658
199	0xbf8722f312ebd4b5	-0.011297129645280493
200	0x3f944a592ec2651b	0.019814866522755197
201	0x3f50f14eee4cfab3	0.0010340948876571942
202	0x3f5020e349c55359	0.0009844035731323057
203	0x3f6b73a3b4d7c854	0.003351039637657963
204	0x3f6e72a98d0600f9	0.003716784624146038
205	0xbf910643166ea9d9	-0.016625450367124237
206	0x3f52d57a61c52103	0.001149529946888051
207	0x3f0a00d51e0f2129	4.959726698633628e-05
208	0xbf89f493f065bdda	-0.012673526548239989
209	0xbf93221b9521901d	-0.01868479821895629
210	0xbf2e981c52db5262	-0.0002334150862483174
211	0x3f8298054e44bb2a	0.009079019023003083
212	0x3f9bc330a2f44286	0.02711177820771351
213	0x3f922b70d03ba3b1	0.01774383803322949
214	0xbf952efc3677357e	-0.020687046837158267
215	0x3f8c316cf6ed3091	0.013766146932219921
216	0x3f4ddb0989567c32	0.000911121040804269
217	0x3f5f69f6efad59df	0.001917353771849421
218	0xbf8fbb273cbd87b7	-0.015493685284756127
219	0xbf7057b1297882db	-0.003989879645388962
220	0xbf58837d46fdc719	-0.0014961932574490465
221	0x3f6902b4f609e5b3	0.003053048553110138
222	0x3f68af381c333ca3	0.003013238515996956
223	0x3f530a5ebd2251a5	0.0011621403869287253
224	0x3f75b618a8fd89bf	0.00530061371668683
225	0xbf99faa52cae99ba	-0.02537019810883987
226	0x3f5e39453ffa1a24	0.0018447090405132672
227	0x3fa4455fed381331	0.039591787059214296
228	0xbf5ec82f31ca6132	-0.001878782356618269
229	0x3f4cde1053b0d6ad	0.0008809642525935045
230	0xbf861a5e0782388e	-0.010792479137560453
231	0x3f6a53fb1ac91150	0.0032138733279529
232	0xbf713660e840481b	-0.004202250045652912
233	0x3f807cce50f744d3	0.008050548406489366
234	0xbfb5ec07f6f9b0ae	-0.08563279895469364
235	0xbfa6805edfc98e8e	-0.043948139970578656
236	0x3f93ee870cb5eb4e	0.019464597845835478
237	0xbf9de03a69588927	-0.02917567508678434
238	0xbf669417f2b2b972	-0.0027561633811138903
239	0x3f6dbb62dc56b027	0.003629391753483108
240	0xbf90b6c0680943a7	-0.016322141980996154
241	0xbf154cc9fb34b6e5	-8.125288768631339e-05
242	0xbf961d8068c4c11c	-0.02159691466766943
243	0xbfa5a097af40eb47	-0.04224084867788363
244	0xbf800476b46e7718	-0.00782101381428961
245	0x3f7b88c106137cb1	0.0067222156514780565
246	0xbfa83a0c71323535	-0.0473178756884444
247	0xbfb90079bd4ef8a2	-0.09766350623883338
248	0x3f642a3b3b4938a8	0.00246154373807091
249	0xbf96e9112113e66f	-0.022373454708008497
250	0xbf6c62f9043c6688	-0.003465162620966581
251	0xbf75508815817a43	-0.005203754022743259
252	0x3f7ab0ea1974e27c	0.006516375018059347
253	0x3f89c7f852664ecc	0.012588443770062872
254	0xbf8c96637742336e	-0.013958718373282965
255	0xbf7c982c2818d0c4	-0.006981060492354089
